models/models_eval_deep_q/100_model.pkl (torch, 186473 bytes, 8 tensors)

net.0.weight f4 [256, 16]
0	0x3e5acce4	0.21367222
1	0x3d6dd6c8	0.05806616
2	0xbcb27cd0	-0.02178803
3	0xbd7c3d18	-0.0615817
4	0x3d825e40	0.06365633
5	0xbd8bbea8	-0.06823474
6	0x3e4c397e	0.19943807
7	0x3dea2dcc	0.11434516
8	0xbd393d90	-0.045224726
9	0xbe490048	-0.19629014
10	0xbe45369c	-0.19259113
11	0xbe0ec5b0	-0.139426
12	0xbda85964	-0.08220175
13	0x3dcf546c	0.10123524
14	0xbe2e9746	-0.17049894
15	0xbdb0fb80	-0.0864172
16	0x3e152b0a	0.145672
17	0x3dd052a9	0.10172016
18	0x3e9b20da	0.302985
19	0x3dd16017	0.10223406
20	0x3e8bba86	0.27290744
21	0x3e6e1579	0.23250379
22	0x3e650d2f	0.2236831
23	0xbd07c389	-0.03314546
24	0xbe3ee67a	-0.18642607
25	0x3e951809	0.291199
26	0x3e095470	0.13411117
27	0xbde525c9	-0.111888476
28	0x3e8bb7ac	0.27288568
29	0xbe1efce4	-0.15526158
30	0x3e030c11	0.12797572
31	0xbe0e195c	-0.13876861
32	0xbe1a15fa	-0.15047446
33	0xbdb34580	-0.087534904
34	0xbe57be38	-0.21068656
35	0xbe007908	-0.1254617
36	0xbe151e98	-0.14562452
37	0x3d789238	0.06068632
38	0x3e579ca8	0.21055853
39	0xbe4c1fcc	-0.19934005
40	0x3e3f60a2	0.18689206
41	0xbe1c9e74	-0.1529482
42	0xbe2c3c52	-0.16819885
43	0xbd970cbc	-0.07375476
44	0x3e7a6278	0.24451625
45	0xbd3af340	-0.045642138
46	0xbdf8ef44	-0.12155011
47	0xbdbbbc34	-0.09166756
48	0xbe404f3e	-0.18780228
49	0xbda346d4	-0.07972494
50	0x3e4b9d72	0.1988428
51	0xbda2cb38	-0.07948917
52	0xbe36bbbc	-0.17845052
53	0xbe683330	-0.22675776
54	0x3e1c4ef6	0.15264496
55	0x3dd68580	0.10474682
56	0xbe3a8b2c	-0.18217152
57	0xbe46d392	-0.19416645
58	0xbe38d16a	-0.18048635
59	0x3d7684a0	0.060185075
60	0x3e4690b8	0.19391143
61	0x3dd9cfa0	0.106353045
62	0xbe791530	-0.24324489
63	0xbd73bc08	-0.059505492
64	0xbcb2d1c9	-0.021828549
65	0x3de4330d	0.1114255
66	0x3e6c19b5	0.23056681
67	0x3e60fb33	0.21970825
68	0x3dd559e5	0.10417537
69	0xbe0272c5	-0.12739094
70	0x3e923319	0.2855461
71	0x3e0f23d4	0.13978511
72	0xbdd6b38e	-0.10483466
73	0x3cb0f4f5	0.02160118
74	0xbe100e9a	-0.1406807
75	0x3c9dd77f	0.019267796
76	0xbdaf48eb	-0.0855883
77	0x3d968db5	0.07351247
78	0xbdc220b3	-0.09478893
79	0x3e83545c	0.256503
80	0x3df3af10	0.11898625
81	0xbd3a6d30	-0.045514286
82	0xbd9612b8	-0.07327789
83	0x3dd08f14	0.1018354
84	0xbe6b7766	-0.22994766
85	0xbcbf7930	-0.023373216
86	0xbe5f0518	-0.21779287
87	0xbe10517c	-0.14093584
88	0x3da5d9d4	0.08098188
89	0xbe61bc5c	-0.2204451
90	0x3dbb21d0	0.091373086
91	0xbd1344d8	-0.035954326
92	0xbdd05a0c	-0.10173425
93	0xbe233efe	-0.15941998
94	0xbe742182	-0.23840907
95	0xbddd2d50	-0.10799658
96	0x3e106a34	0.14103013
97	0x3e0d90ca	0.13824764
98	0x3dbd12e8	0.09232122
99	0x3d7dfe9b	0.06201039
100	0x3d0101f2	0.031495996
101	0x3d9530d9	0.072847076
102	0x3e87e808	0.26544213
103	0x3e30ea24	0.17276818
104	0x3dd9fd37	0.10644
105	0xbe2f05ce	-0.17092058
106	0x3df94010	0.12170422
107	0x3e881149	0.26575688
108	0x3d0df597	0.03465804
109	0xbd3708fb	-0.0446863
110	0x3e2ace32	0.1668022
111	0x3e856227	0.26051447
112	0x3dc6f831	0.097153075
113	0x3e1e9aa9	0.15488686
114	0x3e0e1fa2	0.13879254
115	0xbcadc53f	-0.021212218
116	0x3e3530a0	0.1769433
117	0xbd69d386	-0.05708649
118	0x3e7b6fed	0.24554415
119	0xbe427d9d	-0.1899323
120	0xbe2312b0	-0.15925097
121	0x3e4cf9f0	0.20017219
122	0x3d963c7d	0.07335756
123	0x3e6d3f27	0.23168622
124	0x3e7ebde5	0.24877127
125	0x3e2ea9ce	0.17056963
126	0x3e9bdf4c	0.304438
127	0x3e547336	0.20747074
128	0xbd4c5089	-0.04988149
129	0xbdb4ce88	-0.08828455
130	0x3c8e1a51	0.017346533
131	0xbe86d3b2	-0.26333386
132	0x3d183aff	0.037165638
133	0x3e5c167a	0.21492949
134	0xbe5d0796	-0.21584925
135	0x3e35d5dd	0.17757364
136	0x3bdf59bb	0.0068161166
137	0xbe15f202	-0.146431
138	0xbe59f7b0	-0.21285892
139	0x3e18a42c	0.14906377
140	0xbe8e6748	-0.27813172
141	0xbe8c4082	-0.27392966
142	0x3e41cf75	0.18926795
143	0x3d4fedb5	0.050763804
144	0xbd8e914c	-0.06961307
145	0x3e8dfdeb	0.27732787
146	0xbdf0510f	-0.11734211
147	0xbdba71a0	-0.091037035
148	0xbd89bec5	-0.067258395
149	0x3e7e0baf	0.24809144
150	0x3e22bdf4	0.15892774
151	0x3e6799cc	0.22617263
152	0xbe56a361	-0.20960762
153	0x3ccd298b	0.025044223
154	0xbe1e387c	-0.15451235
155	0x3dc721e9	0.09723265
156	0x3e475944	0.19467646
157	0x3cf1fcdd	0.02953952
158	0x3e556d43	0.20842461
159	0x3dfdb6f8	0.12388414
160	0xbe7ebe3b	-0.24877255
161	0x3e3cdb3f	0.18443011
162	0xbd37e0d5	-0.04489215
163	0x3ea01c84	0.31271756
164	0x3cd1ec84	0.025625475
165	0x3e396786	0.18105897
166	0x3e64457e	0.22292134
167	0x3e45046e	0.19239971
168	0x3c360e14	0.011111755
169	0x3e0401f0	0.12891364
170	0x3e047390	0.12934709
171	0xbe16ba8c	-0.147196
172	0x3c86ad21	0.016439976
173	0xbd5d577f	-0.05403852
174	0xbe2ba500	-0.16762161
175	0x3e981fe9	0.29711846
176	0xbd980a0f	-0.074237935
177	0xbe42ec6f	-0.19035505
178	0x3d212197	0.039338674
179	0xbcb0e02a	-0.021591265
180	0xbe6faaf9	-0.23405065
181	0xbe0ff543	-0.14058404
182	0xbdf2914d	-0.1184412
183	0x3e448865	0.19192655
184	0x3dd6312e	0.10458599
185	0xbe4d452f	-0.20045923
186	0xbd0977a8	-0.03356138
187	0x3d280238	0.04101774
188	0x3dbf81d6	0.09350936
189	0xbe37c74c	-0.1794712
190	0xbe367233	-0.17817001
191	0xbe1036e9	-0.14083447
192	0xbe0e4cfb	-0.13896553
193	0x3e84114e	0.25794452
194	0xbdf70569	-0.12061579
195	0x3c66c938	0.01408606
196	0x3e6e2e94	0.23259956
197	0x3e63156c	0.2217614
198	0xbde4831b	-0.11157819
199	0x3e15b7a9	0.14620842
200	0x3e2a6e54	0.1664365
201	0xbe44a059	-0.19201793
202	0xbd58a48a	-0.05289129
203	0x3e3b764e	0.18306848
204	0xbda76502	-0.081735626
205	0xbe0dec86	-0.13859758
206	0x3d46fd17	0.04858121
207	0xbdf6fa6b	-0.12059482
208	0x3c956c8e	0.01824024
209	0x3c74b891	0.014936582
210	0x3c625b2d	0.013815683
211	0x3e3006a8	0.17190039
212	0xbda4f790	-0.08055031
213	0xbe108cb6	-0.14116177
214	0xbbc69df0	-0.006061308
215	0xbde964f8	-0.113962114
216	0x3e8dbf4f	0.2768502
217	0xbe59b96b	-0.21262138
218	0x3e86da37	0.2633836
219	0xbe0debfa	-0.13859549
220	0xbdd9fc51	-0.10643829
221	0x3e74bf6e	0.2390115
222	0xbe394332	-0.18092039
223	0x3e542662	0.20717767
224	0xbe0e39dc	-0.13889259
225	0xbe15bfa0	-0.1462388
226	0x3e3d9788	0.18514836
227	0xbe70d84c	-0.2352001
228	0x3cd1f640	0.025630116
229	0xbd4f0420	-0.050541043
230	0xbe263a26	-0.1623312
231	0x3e3e6dbc	0.18596548
232	0x3e53379a	0.20626679
233	0xbe266724	-0.16250283
234	0xbdf45594	-0.11930385
235	0xbdebbe10	-0.11510861
236	0xbda7ab80	-0.08187008
237	0x3d2fdc88	0.042934924
238	0x3cba1dd0	0.022719294
239	0xbdc1e034	-0.094665915
240	0xbbe6ad4f	-0.007039703
241	0xbcbcc95d	-0.023045236
242	0x3d927ad0	0.07152331
243	0x3c7b6be6	0.015345549
244	0x3daa8f0e	0.08328067
245	0x3e963bdc	0.29342544
246	0x3dddb156	0.1082484
247	0x3dfe4b4f	0.12416708
248	0x3d745d13	0.059659075
249	0xbd861415	-0.06546799
250	0x3e2fb478	0.17158687
251	0x3e461b28	0.19346297
252	0x3e538fee	0.20660374
253	0x3df0c03e	0.11755417
254	0x3d876bbe	0.06612347
255	0x3e91faf0	0.28511763

net.0.bias f4 [256]
0	0xbbbe50c0	-0.005807966
1	0x3b968267	0.004593182
2	0xbe3f59e8	-0.1868664
3	0xbdc72ffc	-0.09725949
4	0x3e9f3354	0.31093848
5	0xbdc194c4	-0.09452203
6	0xbd1f1016	-0.0388337
7	0x3da7d445	0.08194784
8	0xbde11c7c	-0.10991761
9	0xbc60d661	-0.013722987
10	0x3e287a7f	0.16452979
11	0x3e38b031	0.18035962
12	0xbcf60bec	-0.030034982
13	0xbe29623f	-0.16541384
14	0xbe1da58a	-0.1539518
15	0xbd55b227	-0.052171852
16	0xbe244f33	-0.16045837
17	0xbdc4b2ba	-0.09604402
18	0xbd9aa234	-0.07550469
19	0xbc7bc100	-0.015365839
20	0x3df398fc	0.11894414
21	0xbbbaa58a	-0.0056960033
22	0x3e93c169	0.28858498
23	0xbd273e78	-0.04083106
24	0xbdbdc596	-0.09266202
25	0x3e8201b2	0.25391918
26	0x3e141ba5	0.1446367
27	0x3e5caf82	0.21551326
28	0x3dbee7cc	0.093215555
29	0x3e884ec3	0.2662259
30	0xbd20cdc0	-0.03925872
31	0xbe585724	-0.21126992
32	0xbd2f7f80	-0.042846203
33	0x3d335d19	0.043789957
34	0x3e0385a2	0.12843946
35	0xbe3cd4ca	-0.18440548
36	0x3d0b024e	0.033937745
37	0x3e5061e6	0.20349845
38	0x3e804b95	0.25057665
39	0xbdfcc852	-0.123428956
40	0x3dbf5a6b	0.09343418
41	0xbcffec80	-0.031240702
42	0x3e64cfaf	0.2234485
43	0xbe10e694	-0.14150459
44	0x3e10c58f	0.14137863
45	0xbdebbc2a	-0.11510499
46	0x3ca294ca	0.019846339
47	0x3e92af3b	0.28649315
48	0xbcb27804	-0.021785744
49	0x3d866d69	0.06563837
50	0xbe140f22	-0.14458898
51	0xbcb46e6e	-0.022025313
52	0xbcb70884	-0.022342928
53	0xbdea2b43	-0.11434033
54	0x3ea7656f	0.32694575
55	0x3e2a88b7	0.16653715
56	0xbd11bab8	-0.03557846
57	0x3e448b8e	0.19193861
58	0xbe00609f	-0.12536858
59	0x3c66df52	0.01409133
60	0xbdeeef6f	-0.11666762
61	0x3e9c25fc	0.3049773
62	0xbe4ad57b	-0.19807999
63	0xbc6caf0c	-0.014446031
64	0xbe13d443	-0.1443644
65	0xbe29fe88	-0.16601002
66	0x3e989784	0.29803097
67	0xbe09cf63	-0.13458018
68	0xbe0ca8dd	-0.13736291
69	0x3e5afcdc	0.2138552
70	0xbe4ff394	-0.20307761
71	0x3e809fd2	0.25121933
72	0x3e183a7a	0.14866057
73	0x3e6cf007	0.23138438
74	0xbdc4400e	-0.0958253
75	0xbe7e4a80	-0.24833107
76	0xbd40a5de	-0.047033183
77	0x3e956fec	0.29186952
78	0xbe574e2e	-0.21025917
79	0x3e4a747e	0.19771
80	0x3e0b55b4	0.13606912
81	0x3e89fee3	0.26952276
82	0x3d785b3b	0.06063388
83	0xbd9f819a	-0.077883914
84	0xbd74662d	-0.059667755
85	0xbd88376b	-0.06651195
86	0x3d977971	0.0739621
87	0xbdb69580	-0.089152336
88	0x3d4a8128	0.04943958
89	0x3e5ec4a6	0.21754703
90	0xbe7114c0	-0.23543072
91	0x3e2f5af0	0.17124534
92	0x3e0a9774	0.13534337
93	0xbd90df22	-0.07073809
94	0xbd15b0e7	-0.03654566
95	0xbcd79a46	-0.02631868
96	0xbd1cffc8	-0.03832987
97	0xbd59e540	-0.053197145
98	0x3e8c683c	0.27423275
99	0xbe6158ce	-0.22006533
100	0xbe37feea	-0.17968336
101	0xbe48915a	-0.19586697
102	0x3e6f6802	0.2337952
103	0x3e0c7180	0.13715172
104	0xbe1789e0	-0.14798689
105	0xbe406c13	-0.18791227
106	0x3e77a322	0.24183324
107	0xbe3978c1	-0.1811247
108	0xbd998ce2	-0.074975744
109	0x3e2acb90	0.16679215
110	0xbe5b2018	-0.21398962
111	0xbd027ed8	-0.03185925
112	0xbe5909ec	-0.21195191
113	0x3e5def32	0.21673277
114	0x3d67bb5e	0.05657517
115	0x3e7a7347	0.24458037
116	0x3e910b58	0.28328967
117	0x3e04e9be	0.1297979
118	0xbe59cf9c	-0.21270603
119	0x3e779f04	0.24181753
120	0x3e674a4e	0.22586939
121	0x3e7b851e	0.24562499
122	0x3c00e5c6	0.007867282
123	0x3dc20c6f	0.09475028
124	0xbe598ace	-0.21244356
125	0xbd358788	-0.044318706
126	0xbd1d4648	-0.038397104
127	0xbe39c793	-0.18142538
128	0x3dbb5633	0.091473006
129	0x3daf51f9	0.08560557
130	0x3e920f38	0.28527236
131	0x3dfe0b11	0.124044545
132	0xbe4c50bb	-0.19952671
133	0xbdef205e	-0.116760954
134	0x3e6e684e	0.23281977
135	0xbe70ff4e	-0.23534891
136	0xbe0e079e	-0.13870093
137	0xbdfe9e8d	-0.12432585
138	0xbe085288	-0.13312733
139	0xbdcc9573	-0.09989443
140	0x3da9fde6	0.083003804
141	0x3e75b6a9	0.2399546
142	0x3de10224	0.109867364
143	0x3d39bac0	0.045344114
144	0x3e843ce2	0.258277
145	0x3e0c72a9	0.13715614
146	0xbc3103c0	-0.010804117
147	0xbd0a3e32	-0.03375072
148	0x3e423f5b	0.1896948
149	0xbe5520eb	-0.20813338
150	0x3e677856	0.22604498
151	0xbd8c49ad	-0.0684999
152	0x3dc20e9a	0.09475441
153	0xbe021a4b	-0.12705342
154	0x3e672916	0.22574267
155	0xbe3cd242	-0.18439582
156	0xbe00a78e	-0.12563917
157	0xbe174768	-0.14773333
158	0x3c7e276e	0.01551233
159	0x3e55609b	0.20837633
160	0xbe4e9c3b	-0.20176785
161	0x3d8ce924	0.068804055
162	0xbdc8051a	-0.09766598
163	0x3d9bb3e4	0.07602671
164	0x3dbe0782	0.09278776
165	0x3e9908f1	0.29889634
166	0xbcfcccf0	-0.03085944
167	0xbda634f1	-0.081155665
168	0x3b0ce438	0.0021498334
169	0x3e0ca2a9	0.13733925
170	0x3dbe4599	0.092906184
171	0xbe1f2c04	-0.15544134
172	0x3c73d605	0.014882569
173	0x3c7bfb64	0.01537976
174	0x3e3c0d61	0.18364479
175	0xbd965fa2	-0.07342459
176	0xbd92a237	-0.07159846
177	0x3e752421	0.23939563
178	0xbddcab41	-0.107748516
179	0x3e3c799c	0.18405765
180	0xbe66a7d4	-0.22524959
181	0x3df2a2ea	0.1184748
182	0x3b9c75b8	0.0047747754
183	0xbce12630	-0.02748403
184	0x3e1f3dad	0.15550871
185	0xbd78aecd	-0.060713578
186	0x3e7cf02e	0.24700996
187	0xbe106b2b	-0.14103381
188	0xbbb5da80	-0.005549729
189	0x3c0ef4cd	0.008725357
190	0xbe743ac0	-0.23850536
191	0x3d79887e	0.060921185
192	0xbe37ec50	-0.1796124
193	0x3dbf7f5b	0.09350463
194	0xbdc209a8	-0.09474498
195	0x3e2f5476	0.17122063
196	0x3dae7bb5	0.08519689
197	0xbe1ce7af	-0.15322755
198	0xbbb6d3ce	-0.0055794483
199	0x3d8dace7	0.06917744
200	0x3dfcdd8f	0.123469464
201	0x3e3622e5	0.17786749
202	0xbcfc8200	-0.030823708
203	0x3d73b5c8	0.059499532
204	0x3e97876d	0.2959551
205	0x3e7144e2	0.23561433
206	0x3de1bace	0.11021958
207	0xbd7ab35e	-0.061206214
208	0x3e801a7a	0.250202
209	0x3e8bb5b1	0.27287057
210	0xbe030cc8	-0.12797844
211	0xbe2b6de5	-0.1674114
212	0x3e938953	0.28815708
213	0x3e275421	0.16340686
214	0xbc3c5d1c	-0.011496808
215	0x3e4d104b	0.20025747
216	0x3d9b3fd1	0.075805314
217	0xbcd5ef4b	-0.02611508
218	0x3df63445	0.12021688
219	0xbe1bb354	-0.15205127
220	0xbd342d4b	-0.043988507
221	0xbe513688	-0.20430958
222	0xbdce4f74	-0.10073748
223	0x3e480f1f	0.19537018
224	0xbd26bef0	-0.040709436
225	0xbba042ad	-0.004890761
226	0x3e3e74f6	0.18599305
227	0x3db8cf6d	0.09023938
228	0x3e8886eb	0.26665434
229	0x3e2cf167	0.16888963
230	0xbc0dce20	-0.008655101
231	0xbe2e72b4	-0.17035943
232	0x3e90c3e9	0.28274468
233	0xbda3434c	-0.0797182
234	0x3dc64a4b	0.09682139
235	0x3e22f44a	0.15913501
236	0xbd9a1758	-0.07523984
237	0x3e6254d0	0.22102666
238	0x3e502a80	0.20328712
239	0xbe641a42	-0.22275642
240	0xbe2588cc	-0.16165465
241	0x3df980de	0.121827826
242	0xbd13daa8	-0.0360972
243	0x3c9b8190	0.018982679
244	0xbe30ebb6	-0.17277417
245	0x3c829270	0.015938967
246	0xbe087f24	-0.1332975
247	0x3e542ef1	0.20721032
248	0x3e16a74a	0.14712253
249	0xbe75d91f	-0.24008606
250	0x3d76fca6	0.060299538
251	0x3e63b2c8	0.22236168
252	0x3e6b9260	0.23005056
253	0xbe0f5436	-0.13996968
254	0xbe053ba0	-0.13011026
255	0xbd63f808	-0.055656463

net.3.weight f4 [128, 256]
0	0xbd76c27e	-0.060244076
1	0xbd2ffc2d	-0.042965103
2	0x3ab9db80	0.0014179796
3	0x3d31752a	0.043324627
4	0xbca26356	-0.019822758
5	0xbcfa85cc	-0.030581377
6	0xbc299d9c	-0.010352518
7	0xbce44bfb	-0.027868262
8	0x3c9a3bf9	0.018827425
9	0x3d4c4cc5	0.0498779
10	0xbd401435	-0.04689427
11	0x3dad3c7b	0.08458801
12	0xbd25b1fd	-0.040452946
13	0x3c816628	0.015795782
14	0xbcb519e8	-0.02210708
15	0xbd4be524	-0.049779072
16	0x3ccf1e20	0.02528292
17	0x3c8b9fe2	0.017044012
18	0xbcdbdeeb	-0.026839694
19	0xbd77b274	-0.06047292
20	0x3d5e6152	0.05429203
21	0x3d1ddd82	0.038541324
22	0x3c0f636c	0.008751731
23	0xbd759414	-0.05995567
24	0xbb1ba4ce	-0.0023749354
25	0x3ccf1f9f	0.025283633
26	0x3e0904a9	0.13380684
27	0x3d069a1e	0.03286182
28	0xbd17e363	-0.037082087
29	0xba8ba7a7	-0.0010654823
30	0xbd454ac0	-0.04816699
31	0x3c3fa650	0.011697367
32	0x3d6ca8d8	0.05777821
33	0x3b36484a	0.0027814084
34	0x3d83566a	0.064129665
35	0x3d5dde60	0.05416715
36	0xbd55dc3c	-0.052211985
37	0x3cba6591	0.022753509
38	0xbcf27113	-0.029594934
39	0x3c640418	0.013916992
40	0xbc0ed130	-0.008716866
41	0x3c0af5e8	0.00848148
42	0x3cb0665f	0.02153319
43	0x3d7de4d4	0.061985806
44	0x3ced8839	0.02899562
45	0xbce686f0	-0.028140515
46	0xbd015cf6	-0.031582795
47	0xbc164927	-0.009172714
48	0xbccee160	-0.025253952
49	0xbd63e366	-0.055636786
50	0xbd7296cc	-0.059225842
51	0xbc040205	-0.008057122
52	0x3d791d26	0.060818814
53	0x3c97dcf9	0.018537985
54	0xbd8ee4ea	-0.06977256
55	0xbb015980	-0.0019737184
56	0xbcd75918	-0.0262876
57	0xbccfb3bc	-0.025354259
58	0x3cb108c7	0.02161063
59	0xbd4acc62	-0.04951132
60	0xbce27350	-0.027642876
61	0xbd66a888	-0.056313068
62	0x3d6508ce	0.0559166
63	0xbd9e0e53	-0.07717576
64	0xba123e00	-0.0005578697
65	0x3b3a2300	0.002840221
66	0xbcda2a41	-0.026631476
67	0xbca9fe8c	-0.02075126
68	0xbd8b3a1b	-0.06798192
69	0x3d1645d1	0.036687676
70	0xbd13da92	-0.036097117
71	0xbc24f63d	-0.010068473
72	0xbc82d57a	-0.015970934
73	0x3cae5ee4	0.021285482
74	0x3be8adf0	0.007100813
75	0xbcdcc3e4	-0.026948877
76	0x3d1f5374	0.038897946
77	0x3d1db452	0.038502045
78	0xbd21a1fc	-0.03946112
79	0xbd1c0121	-0.038087014
80	0xbda2f5dd	-0.07957051
81	0x3d3004a9	0.042973194
82	0x3d0ca712	0.03433902
83	0xbcdfc0da	-0.027313638
84	0xbd83efe3	-0.06442239
85	0x3d12489e	0.035713784
86	0x3d8d76d9	0.06907434
87	0xbd02331e	-0.03178703
88	0xbcd34aa0	-0.02579242
89	0xbd2947a9	-0.041328106
90	0x3c549ca8	0.012976803
91	0xbca3f1af	-0.020012705
92	0x3d10efba	0.03538487
93	0x3cf46600	0.029833794
94	0xbbb8f650	-0.005644597
95	0xbd911e3d	-0.070858456
96	0xbd42f5d4	-0.04759772
97	0x3ccdc380	0.025117636
98	0xbd3fdda7	-0.046842244
99	0xbd5b919c	-0.05360566
100	0x3c576b30	0.013148114
101	0xbcab0c6d	-0.020879949
102	0xbc9238a5	-0.017849276
103	0x3cc86893	0.024463927
104	0xbc18fdc8	-0.00933785
105	0x3d0dc44a	0.034611024
106	0xbd096dae	-0.033551864
107	0xbce452bf	-0.027871488
108	0xbd598dcf	-0.053113755
109	0xbcec0426	-0.028810572
110	0xbc4e7d30	-0.012603089
111	0xbbeb830f	-0.0071872543
112	0x3d7db386	0.061938785
113	0x3cb0124e	0.021493103
114	0xbd215b04	-0.03939344
115	0xbcbdf2aa	-0.023187
116	0x3d39e994	0.045388773
117	0x3dd748c4	0.10511926
118	0x3d956e15	0.07296387
119	0x3dd308ff	0.1030445
120	0x3d1137cc	0.035453603
121	0x3d37b998	0.04485473
122	0xbdb96570	-0.09052551
123	0xbd81bb0a	-0.06334503
124	0xbd326456	-0.04355272
125	0x3d63a48c	0.055576846
126	0xbd7c01f6	-0.061525308
127	0x3d82f776	0.06394856
128	0x3d0872ca	0.033312596
129	0xbbb149a0	-0.005410388
130	0x3b259d2e	0.0025270688
131	0xbda3014a	-0.0795923
132	0x3d72e938	0.059304446
133	0xbd91192c	-0.07084879
134	0x3d143282	0.03618098
135	0xbd4d663a	-0.05014632
136	0x3d3548b0	0.044258773
137	0xbc99c451	-0.018770369
138	0xbd0c54ae	-0.034260444
139	0x3cc404bc	0.023928039
140	0x3c799603	0.0152335195
141	0xbca01ee8	-0.019545987
142	0xbbec3528	-0.007208485
143	0x3c9d4eec	0.019202672
144	0xbd789594	-0.060689524
145	0x3da3dc58	0.080010116
146	0xbc351968	-0.011053421
147	0x3d0ba0d5	0.03408893
148	0xbd6f1e62	-0.058378585
149	0xbd54f504	-0.051991478
150	0x3d7200cf	0.059082802
151	0xbd19eb7b	-0.037578087
152	0xbcd64d5d	-0.026159937
153	0x3c20b112	0.009807842
154	0x3c06d542	0.008229556
155	0xbcee6e20	-0.029105246
156	0x3ccc5ca8	0.024946526
157	0xbbe71637	-0.0070522088
158	0xbc02b4e2	-0.007977696
159	0x3c20381d	0.009779003
160	0x3d8a626d	0.067570545
161	0xbdadcce6	-0.08486347
162	0x3d7c7091	0.06163079
163	0xb9dd7400	-0.00042238832
164	0x3cd9f24d	0.026604796
165	0x3d227880	0.0396657
166	0xbd5a310e	-0.05326944
167	0xbd7bafe2	-0.06144703
168	0xbd470187	-0.04858544
169	0x3d5ec972	0.054391332
170	0x3cf78c60	0.030218303
171	0xbc88ced1	-0.01670018
172	0x3c41fcfe	0.011840103
173	0x3d4ad616	0.049520575
174	0x3d0ac85a	0.033882476
175	0x3c2e5ea8	0.010642685
176	0x3d4831b0	0.04887551
177	0x3d1d78b4	0.03844519
178	0xbd620794	-0.05518301
179	0x3d59a1ce	0.053132825
180	0xbd5c7ec6	-0.053831838
181	0xbd8a99c7	-0.06767612
182	0x3d90cf75	0.07070819
183	0xbce56398	-0.028001592
184	0x3c6d58e8	0.014486529
185	0xbb87d35f	-0.0041450704
186	0xbd4487a9	-0.047980938
187	0x3d585cda	0.052822925
188	0xbbb9b510	-0.0056673363
189	0x3d0d27e1	0.03446186
190	0x3d0074bc	0.031361327
191	0x3d430840	0.04761529
192	0x3d4fe0c2	0.050751455
193	0xbd313b56	-0.043269478
194	0x3ca1e480	0.019762278
195	0x3c5a7a28	0.013334788
196	0x3d4ce204	0.050020233
197	0xbb1588c2	-0.002281711
198	0xbd7748ca	-0.06037215
199	0x3ce34f04	0.027747639
200	0x3d1ed1fe	0.038774483
201	0x3d2c0328	0.041995198
202	0xbd5edcae	-0.054409675
203	0x3ac9aec0	0.0015387163
204	0x3d029b64	0.031886473
205	0x3d897024	0.06710842
206	0xbbb6e927	-0.005581993
207	0xbda28c85	-0.07936958
208	0xbd257bf2	-0.040401407
209	0xbd62afeb	-0.05534355
210	0xbd4878f0	-0.04894346
211	0x3c8f7481	0.017511608
212	0xbd172c10	-0.036907256
213	0x3c7c0df7	0.015384189
214	0xbc16e69b	-0.009210254
215	0xbd42b68d	-0.047537375
216	0xbcf04172	-0.029328082
217	0xbcf4cf04	-0.029883869
218	0xbcb55de5	-0.022139499
219	0xbd437cf2	-0.04772658
220	0x3c836194	0.01603774
221	0xbd5ac9a4	-0.053414956
222	0x3c3b6d52	0.011439638
223	0xbcf6fd6c	-0.030150138
224	0xbcb66b2c	-0.0222679
225	0xbd07ad02	-0.033123977
226	0x3d7d37dc	0.06182085
227	0x3ce48f95	0.027900496
228	0x3c7faecb	0.015605639
229	0xbccfa266	-0.025345992
230	0xbd620c18	-0.055187315
231	0xbc7e25a8	-0.015511908
232	0x3d1f9603	0.03896142
233	0xbd17fc6a	-0.037105955
234	0x3cb9264a	0.022601265
235	0x3bcbf840	0.006224662
236	0xbc700f98	-0.014652155
237	0xbd8cf26e	-0.06882177
238	0x3b338e20	0.0027397946
239	0x3d20b02c	0.03923051
240	0x3c391118	0.011295579
241	0xbd4bc389	-0.049747024
242	0xbc88a7d0	-0.016681582
243	0x3d2ab806	0.041679405
244	0x3bceb950	0.006308712
245	0x3d6d1102	0.057877548
246	0xbd9974e0	-0.07492995
247	0xbc8b3930	-0.016995043
248	0x3cbe78d4	0.023250975
249	0xbd314aa9	-0.043284092
250	0xbd84ae03	-0.064785026
251	0xbd38e679	-0.04514167
252	0x3b435f60	0.0029811487
253	0x3d08be32	0.03338451
254	0xbd0c0114	-0.034180716
255	0xbd41992a	-0.04726521

net.3.bias f4 [128]
0	0x3cb82ee4	0.022483297
1	0xbc058599	-0.008149528
2	0xbd847d98	-0.064692676
3	0xbc9f41ad	-0.019440496
4	0x3d658e42	0.05604387
5	0xbc81bb4c	-0.01583638
6	0xbd980d36	-0.07424395
7	0xbca49092	-0.020088468
8	0x3c052dde	0.008128611
9	0x3e18740b	0.14888017
10	0x3d78ad28	0.06071201
11	0x3ca04001	0.01956177
12	0xbcc6f860	-0.024288356
13	0xbd0f6bb7	-0.035014834
14	0x3de0094e	0.10939275
15	0x3d87c7b1	0.06629885
16	0x3c17eba1	0.009272487
17	0xbd5a2a4f	-0.053263005
18	0xbd8337a0	-0.06407094
19	0xbd0facef	-0.03507703
20	0xbceb1775	-0.028697709
21	0x3da3e2b0	0.080022216
22	0xbd3a2d5c	-0.045453414
23	0x3d25b0de	0.040451877
24	0x3d2d3d3c	0.042294726
25	0x3c07a363	0.0082787005
26	0x3d01975b	0.031638484
27	0x3dffa571	0.12482727
28	0x3d04b1f0	0.032396257
29	0xbcd566d1	-0.026050003
30	0x3e0e4d1b	0.13896601
31	0xbd3902d0	-0.045168698
32	0xbd07b0a2	-0.033127435
33	0xbd81764d	-0.06321392
34	0x3cc55f3c	0.024093263
35	0x3ddd6b1f	0.10811447
36	0x3d96117d	0.073275544
37	0x3d134f5b	0.03596435
38	0x3d118945	0.0355313
39	0xbd912abd	-0.0708823
40	0x3b140feb	0.0022592496
41	0xbcac9364	-0.021066375
42	0x3dc2f615	0.09519593
43	0xbc20ebc9	-0.009821841
44	0x3dd5f56c	0.10447201
45	0x3cab06cb	0.020877263
46	0x3de34f4f	0.11099111
47	0x3d445d43	0.047940504
48	0x3cb03c70	0.021513194
49	0x3d37c1c2	0.044862516
50	0xba57bc02	-0.00082296145
51	0xbd199f01	-0.037505154
52	0xbd67c249	-0.05658177
53	0x3e06500b	0.13116471
54	0x3c8e1459	0.017343687
55	0x3a4895a4	0.0007651693
56	0x3d0de693	0.03464372
57	0x3d2233ad	0.039600063
58	0x3df1c267	0.118046574
59	0xbd50eec5	-0.05100896
60	0xbc0f239b	-0.008736516
61	0x3db06087	0.08612161
62	0xbc23f9e5	-0.01000831
63	0x3e13e6be	0.1444349
64	0xbc5f2ff8	-0.0136222765
65	0xbcf523f9	-0.02992438
66	0xbd5e5452	-0.054279633
67	0x3dcdfaa5	0.10057572
68	0x3d7f5722	0.062338956
69	0xbbbaf263	-0.0057051643
70	0xbcab5c66	-0.020918082
71	0x3c1a2495	0.009408136
72	0xba094c31	-0.00052374887
73	0xba252737	-0.0006300094
74	0x3cc15fe0	0.023605287
75	0xbc67ddd0	-0.014152005
76	0xbbcd52d4	-0.0062659774
77	0xbb4a4057	-0.0030861103
78	0x3d1ea6a8	0.038733155
79	0x3db2af6a	0.08724864
80	0x3d7efb39	0.062251303
81	0x3ba3dcce	0.005000687
82	0xbd8f3be6	-0.069938466
83	0xbd265a9f	-0.040613767
84	0x3d548daa	0.051892914
85	0x3d5acd2b	0.05341832
86	0x3ba51eca	0.0050390707
87	0x3cb15838	0.021648511
88	0xbd84a885	-0.06477455
89	0x3d5d5534	0.054036334
90	0xbc1617ca	-0.009160945
91	0x3dcd7844	0.100327045
92	0xbd188e62	-0.03724516
93	0xbd0f1923	-0.03493608
94	0x3e01a273	0.12659626
95	0xbcf1b04c	-0.02950301
96	0x3c8c9877	0.017162545
97	0x3c0d796c	0.008634906
98	0xbc398b1c	-0.01132467
99	0x3b40194e	0.0029311958
100	0x3d836afa	0.064168885
101	0x3e023634	0.1271599
102	0x3c4a7dcf	0.012359097
103	0x3d1e0c46	0.038585924
104	0x3d11fb2b	0.035639923
105	0xbd532ce5	-0.051556487
106	0xbd69a8aa	-0.057045616
107	0xbd3a7b65	-0.045527834
108	0xbc9ca9d8	-0.019123957
109	0xbb895f0d	-0.004192239
110	0xbc6db4f4	-0.014508475
111	0x3d43e574	0.047826245
112	0xbd7852d8	-0.06062588
113	0x3e04cf62	0.12969735
114	0x3d70fc56	0.058834396
115	0x3c2cc2c7	0.010544485
116	0xbb55d62c	-0.0032628877
117	0xbd9e9741	-0.07743693
118	0x3d19d641	0.037557844
119	0xbcf1bb92	-0.029508386
120	0xbd27fb51	-0.04101116
121	0x3d48d2de	0.049029224
122	0xbc9cb267	-0.019128038
123	0x3e26f57e	0.16304585
124	0xbd420d6e	-0.04737609
125	0x3df02033	0.117248915
126	0x3b671329	0.0035259223
127	0x3e0e2ae1	0.13883545

net.6.weight f4 [64, 128]
0	0x3db973a3	0.09055259
1	0xbd15ada4	-0.03654255
2	0xbbc3a9a0	-0.0059711486
3	0xbc1f15b0	-0.009709761
4	0x3d810f02	0.06301691
5	0x3da16fd5	0.078826584
6	0x3c1c0c22	0.009524377
7	0xbd4b1674	-0.04958196
8	0xbc100534	-0.008790303
9	0xbd1d6144	-0.038422838
10	0xbd96aabe	-0.07356785
11	0x3dae98b1	0.08525217
12	0x3cc30787	0.0238073
13	0x3d3bf98d	0.045892287
14	0xbdf30bcd	-0.11867485
15	0xbd0386e5	-0.032111067
16	0xbd41b223	-0.047289025
17	0xbd4aafc8	-0.049484044
18	0xbd3d475e	-0.04621064
19	0xbcca0674	-0.02466128
20	0x3d5d3b74	0.054011777
21	0xbbb95942	-0.0056563923
22	0x3bca9b95	0.0061830976
23	0xbd324e9f	-0.04353201
24	0x3bbb0f7e	0.005708634
25	0x3d2a82c8	0.04162863
26	0xbcde0c37	-0.027105434
27	0x3d5fe40f	0.054660853
28	0xbdb2d4f6	-0.08732025
29	0xbd09d949	-0.033654485
30	0x3dd682d1	0.1047417
31	0xbc6642dc	-0.014054026
32	0x3d501556	0.050801598
33	0xbb9638c1	-0.0045844023
34	0xbd030786	-0.031989597
35	0xbc754481	-0.014969946
36	0xbc65322f	-0.0139890155
37	0x3d1fb8ef	0.038994726
38	0xbd1d17de	-0.03835284
39	0x3cea97e4	0.02863688
40	0xbceb9f39	-0.028762447
41	0x3d1ad7f1	0.037803594
42	0xbd21da56	-0.039514862
43	0x3d9cc4f5	0.07654754
44	0xbd83c413	-0.064338826
45	0xbd1323fd	-0.035922993
46	0x3bbc7edb	0.005752427
47	0x3dd3253d	0.10309837
48	0x3d5ede9c	0.054411516
49	0x3d31a303	0.04336835
50	0x3c529fef	0.012855514
51	0x3cfb471a	0.030673552
52	0xbccd6903	-0.025074488
53	0x3df6d379	0.12052054
54	0x3b6203e2	0.0034487178
55	0xbc8f73ae	-0.017511215
56	0xbc3277cd	-0.010892821
57	0xbdad1660	-0.08451533
58	0x3d32a3c0	0.043613195
59	0x3cae5c52	0.021284256
60	0xbd9f177c	-0.07768151
61	0x3c808693	0.01568917
62	0x3d74cee8	0.059767634
63	0xbd78011d	-0.060547937
64	0x3d827290	0.06369507
65	0x3c5d84cf	0.013520434
66	0x3d196d83	0.037457954
67	0xbca03214	-0.01955513
68	0x3d698759	0.057013843
69	0xbd3f6ee0	-0.046736598
70	0x3db9a499	0.09064598
71	0x3d26b102	0.04069615
72	0x3d8665e7	0.06562405
73	0x3d83b27b	0.06430527
74	0x3d041340	0.03224492
75	0x3d620e27	0.055189278
76	0x3d9b5570	0.07584655
77	0x3d893220	0.06699014
78	0xbda835d5	-0.08213393
79	0x3bc2fd62	0.0059506157
80	0xbd3ed527	-0.046589997
81	0x3d854912	0.06508078
82	0xbddb5cd8	-0.10711068
83	0x3d865c65	0.065605916
84	0x3d75e021	0.0600282
85	0x3c62c3ce	0.013840629
86	0xbd036d2e	-0.032086544
87	0xbd8bb18f	-0.06820976
88	0x3d9c0c6b	0.07619556
89	0x3ca0127b	0.019540062
90	0xbd6e53b4	-0.058185294
91	0xbbfe549a	-0.00776155
92	0x3d04be99	0.03240833
93	0x3d6eb40e	0.058277182
94	0x3bc0d434	0.0058846716
95	0xbd0eb6a0	-0.034842134
96	0x3d9378bd	0.072007634
97	0x3ce443b6	0.027864318
98	0xbcdd73f4	-0.02703283
99	0x3d97f824	0.07420376
100	0xbdd8feb2	-0.10595454
101	0x3d9246d1	0.071424134
102	0xb904cefc	-0.00012665609
103	0x3cfe2e7c	0.031028025
104	0xbd40bc81	-0.04705477
105	0x3c961dc0	0.018324733
106	0xbcd60eb8	-0.026130065
107	0xbca5df16	-0.020247977
108	0x3d47f81f	0.04882061
109	0x3d9f12bd	0.07767246
110	0x3d66194c	0.05617647
111	0xbc4d4e02	-0.012530806
112	0xbd39ff11	-0.045409266
113	0xbd9d7d36	-0.07689898
114	0x3cc7314b	0.024315497
115	0x3da6bedd	0.08141873
116	0x3d7078d5	0.058708984
117	0xbb9b9e06	-0.0047490625
118	0xbbea3632	-0.007147574
119	0xbd9dbe86	-0.07702355
120	0x3cfa38b1	0.03054461
121	0x3d586ba7	0.05283704
122	0x3d942d65	0.07235221
123	0xbd1c0b29	-0.03809658
124	0x3d2ba686	0.041906856
125	0xbda72080	-0.08160496
126	0xb9c31b13	-0.0003721347
127	0xbdbfb1d5	-0.09360091
128	0x3d7691df	0.060197707
129	0xbda6cf41	-0.08144999
130	0xbd465ba7	-0.04842725
131	0xbb337346	-0.002738194
132	0x3e528ce1	0.20561554
133	0xbd7dd484	-0.06197025
134	0x3d127c0d	0.035762835
135	0xbd807e39	-0.06274075
136	0x3d6494ff	0.055806156
137	0x3d16dbe5	0.0368308
138	0x3cf46c5d	0.029836828
139	0x3d99ff9e	0.07519458
140	0xbbd30421	-0.006439701
141	0xbda7fbd9	-0.08202333
142	0x3db227d7	0.08699005
143	0x3e25b0dd	0.16180749
144	0x3d254852	0.040352173
145	0x3aa30f1e	0.0012440418
146	0xbd0fe465	-0.035129923
147	0xbc6cd4d4	-0.014455039
148	0xbda804a9	-0.08204014
149	0x3e030a3c	0.12796873
150	0xbcdc7a8a	-0.0269139
151	0xbd932b11	-0.07185949
152	0x3e193067	0.1495987
153	0xbcb6c6c9	-0.022311585
154	0x3be6660b	0.0070312074
155	0x3e4173f8	0.18891895
156	0xbb5e8e22	-0.003395923
157	0x3dc759bb	0.097339116
158	0x3d6b037d	0.057376374
159	0x3c310c42	0.010806145
160	0xbcd48bc0	-0.025945544
161	0x3d90347b	0.0704126
162	0x3d77970a	0.060446776
163	0x3dd2ee29	0.10299332
164	0x3deb16a4	0.11478928
165	0xbccd1aa0	-0.02503711
166	0x3d925f97	0.071471386
167	0x3d5c5121	0.053788308
168	0xbba66b48	-0.005078707
169	0x3d8eaf24	0.06966999
170	0x3e2496fd	0.16073222
171	0xbd3015b3	-0.042989444
172	0x3e01b8bf	0.12668131
173	0x3d38c5db	0.045110565
174	0x3e3f9d3d	0.18712325
175	0xbe25179f	-0.16122292
176	0xbcaa4fcf	-0.020790009
177	0x3db69c2a	0.08916505
178	0xbdce014e	-0.100588426
179	0xbd995594	-0.07487026
180	0xbd53db0d	-0.051722575
181	0x3d85e00d	0.06536875
182	0x3e031220	0.12799883
183	0xbb6d0772	-0.0036167768
184	0xbc1b09b0	-0.009462759
185	0xbd5acb1a	-0.05341635
186	0x3d22b412	0.03972251
187	0xbd9af821	-0.07566858
188	0x3cf0bb4c	0.029386185
189	0x3dae6ff8	0.0851745
190	0xbd41b499	-0.047291372
191	0x3e46315c	0.19354767
192	0xbd0130b2	-0.03154058
193	0xbca64379	-0.020295845
194	0x3ddce353	0.10785546
195	0x3d6f4324	0.05841364
196	0x3e33bb8c	0.17552012
197	0x3c4039a4	0.011732493
198	0xbc92af1d	-0.017905766
199	0x3d93fcfd	0.07225988
200	0x3db936b4	0.09043637
201	0x3d3dfebc	0.04638551
202	0xbd15534c	-0.03645639
203	0xbd94e160	-0.07269549
204	0xbcd20608	-0.025637642
205	0xbd013996	-0.03154906
206	0x3d04de90	0.032438815
207	0x3dc050cb	0.0939041
208	0x3e1591a2	0.14606336
209	0x3cccda77	0.025006516
210	0xbd99a7ba	-0.075026944
211	0x3bff8357	0.0077976394
212	0x3e23245d	0.1593184
213	0xbd884d71	-0.06655396
214	0xbd915b29	-0.070974655
215	0xbd82ff58	-0.06396359
216	0x3c99df69	0.018783288
217	0xbc2f5cf1	-0.010703311
218	0x3d2b0387	0.04175141
219	0x3e697e61	0.22802116
220	0x3cb3a4bf	0.021929143
221	0x3d7821be	0.060579054
222	0x3ddd7d9e	0.10814975
223	0x3d9fe238	0.0780682
224	0xbd199106	-0.03749182
225	0xbd9322f2	-0.071844
226	0x3dac5a3f	0.084156506
227	0x3d9fa280	0.07794666
228	0x3e2cb65d	0.16866441
229	0x3e20d793	0.15707235
230	0xbb8ca50f	-0.0042921375
231	0x3c919b7e	0.01777434
232	0xbd08cc09	-0.033397708
233	0x3d946ef2	0.07247724
234	0x3b45e418	0.003019577
235	0xbd9ace72	-0.075589076
236	0x3cb4ae43	0.02205575
237	0x3d954ed2	0.072904244
238	0xbd6410a5	-0.055679936
239	0xbcadb9d0	-0.021206766
240	0x3d293cf6	0.041317903
241	0x3e37dd3b	0.17955486
242	0x3d974ecd	0.07388077
243	0xbcc4bbe2	-0.02401537
244	0x3d4eb005	0.050460834
245	0x3d33c611	0.043890063
246	0x3d46b3fc	0.04851149
247	0xbd52cf30	-0.05146712
248	0x3c9f3aac	0.019437157
249	0x3e148cf1	0.1450689
250	0x3cc024f3	0.023455119
251	0x3dd40bfd	0.10353849
252	0x3bfc4243	0.0076983287
253	0x3dc6a220	0.09698892
254	0xbd0a918f	-0.03383022
255	0xbe389a7c	-0.18027681

net.6.bias f4 [64]
0	0xbd0a5d49	-0.03378037
1	0x3e67cd61	0.2263694
2	0x3dd3a675	0.103344835
3	0xbd90f582	-0.07078077
4	0xbce55929	-0.027996616
5	0xbca1fbda	-0.019773412
6	0xbde7bb92	-0.11315073
7	0x3cfface8	0.031210378
8	0x3dbea635	0.09309045
9	0xbdd0d9ab	-0.10197767
10	0x3d979b84	0.07402709
11	0x3dc89459	0.0979392
12	0xbd923454	-0.07138887
13	0xba7f99d3	-0.00097503996
14	0xbd6bfac4	-0.057612196
15	0x3deed975	0.116625704
16	0x3d1b2fa1	0.03788722
17	0x3e17bed8	0.14818895
18	0x3b840d73	0.0040299236
19	0x3d34e410	0.04416281
20	0x3db8d32f	0.09024655
21	0x3ddba349	0.107245035
22	0x3c790f45	0.015201394
23	0x3e406cba	0.18791476
24	0xbdc52409	-0.09626014
25	0x3dd70437	0.10498851
26	0x3e159d9f	0.14610909
27	0xbd0bece2	-0.034161456
28	0xbdc496fd	-0.09599111
29	0x3d52e4c5	0.051487703
30	0x3d0de454	0.03464158
31	0x3dd3ebca	0.103477076
32	0xbd8a63c8	-0.06757313
33	0xbbbc58be	-0.0057478836
34	0xbc77c34a	-0.015122244
35	0xbd213ee2	-0.03936661
36	0xbde5d3fd	-0.11222074
37	0x3dd2e4f2	0.10297574
38	0xbd4c3578	-0.04985568
39	0x3db8ad73	0.09017458
40	0x3d732c4b	0.059368413
41	0x3e45648a	0.19276634
42	0xbd4750c4	-0.04866101
43	0x3e368b28	0.17826521
44	0xbd871fa9	-0.065978356
45	0x3d429d24	0.047513142
46	0x3dc638b7	0.09678786
47	0xbd9d9a3e	-0.07695435
48	0x3c6caf90	0.014446154
49	0xbd5d1a5c	-0.053980216
50	0xbca3dae5	-0.020001838
51	0xbd166403	-0.036716472
52	0xbd8ec48f	-0.06971084
53	0xbce525b4	-0.02797208
54	0xbd14c3f7	-0.0363197
55	0x3d79c79b	0.060981374
56	0xbc69207e	-0.014228938
57	0x3d17fb37	0.03710481
58	0xbc48ad14	-0.012248296
59	0x3af5a5d5	0.0018741438
60	0x3cd4e3fc	0.025987618
61	0x3d57c932	0.05268211
62	0x3d50eda3	0.051007878
63	0x3e3db9b8	0.18527877

net.8.weight f4 [3, 64]
0	0x3d8c3d8b	0.06847676
1	0xbe279699	-0.16366042
2	0xbd461f78	-0.048369855
3	0x3d0305b5	0.031987865
4	0x3d7e2309	0.06204513
5	0x3c7d2edf	0.0154530695
6	0xbd47ee54	-0.04881127
7	0xbdf053bd	-0.11734722
8	0xbe2798e5	-0.16366918
9	0x3d185a48	0.037195474
10	0xbd778e1f	-0.06043827
11	0x3c746092	0.014915602
12	0xbd966a34	-0.073444754
13	0x3d91b47e	0.07114504
14	0xbde83381	-0.113379486
15	0xbdb45757	-0.08805721
16	0xbd2e9ec6	-0.042631887
17	0xbdf18daf	-0.11794602
18	0x3dc8fa2c	0.098133415
19	0x3d8865aa	0.06660016
20	0xbe0661b7	-0.13123213
21	0xbd5bf2bb	-0.053698283
22	0xbdce73a7	-0.10080653
23	0xbdb46c8a	-0.08809765
24	0x3d121592	0.035665102
25	0xbd0aebb3	-0.033916187
26	0xbe1a7dbc	-0.15087026
27	0x3d825d00	0.063653946
28	0x3e2bffc0	0.1679678
29	0x3cf0503c	0.029335134
30	0x3e0b195e	0.13583896
31	0xbe18b368	-0.14912188
32	0xbdb27ad2	-0.08714832
33	0xbdca3abb	-0.09874483
34	0xbce87bba	-0.02837931
35	0x3d96a754	0.07356134
36	0xbd95def8	-0.073179185
37	0xbd81cd52	-0.0633799
38	0xbdd01ac6	-0.10161357
39	0x39c99773	0.00038450546
40	0x3d81a934	0.06331101
41	0xbd63f3d6	-0.055652462
42	0x3df9939f	0.121863596
43	0xbdd49337	-0.103796415
44	0x3dcc22fe	0.09967612
45	0xbdb5ebcb	-0.088828646
46	0xbdbf7f11	-0.09350408
47	0xbc6274a0	-0.013821751
48	0x3de359c9	0.111011095
49	0xbd8752ba	-0.06607576
50	0xbdc90fac	-0.09817442
51	0x3d648303	0.055789005
52	0x3dc6cd28	0.09707099
53	0xbcd0a044	-0.025467046
54	0x3dca1280	0.0986681
55	0xbe02fa0f	-0.12790702
56	0x3a01b44c	0.0004947826
57	0xbcc7ae30	-0.024375051
58	0x3d93f446	0.07224326
59	0xbda60e2e	-0.08108173
60	0x3d937fe2	0.07202126
61	0xbd7efc81	-0.062252525
62	0xbdac17b2	-0.08402957
63	0xbe1ccbf5	-0.15312178
64	0xbdd49dd7	-0.10381668
65	0xbdde4070	-0.10852134
66	0xbdbeadc8	-0.0931049
67	0x3d6c0b1a	0.057627775
68	0x3bc55d26	0.006023067
69	0xbd98be5e	-0.07458185
70	0x3c3ac0b8	0.011398487
71	0x3db4c916	0.088274166
72	0xbb822356	-0.0039714975
73	0x3db3a210	0.08771145
74	0x3dc85d8f	0.0978347
75	0xbe1762ca	-0.14783779
76	0xbdbef02a	-0.093231514
77	0x3cbdfd42	0.023192052
78	0x3cd99221	0.026558938
79	0xbd7a5f88	-0.061126262
80	0x3ca624f9	0.020281302
81	0xbd7bffa3	-0.06152309
82	0x3da3a724	0.07990864
83	0xbc92ebdb	-0.01793473
84	0xbdd81ab1	-0.10551966
85	0xbd589701	-0.052878384
86	0xbd521042	-0.051285036
87	0xbe1afba5	-0.15135057
88	0x3dc76350	0.09735739
89	0xbd3ebb3e	-0.046565287
90	0xbd79bbd7	-0.060970154
91	0xbca3128f	-0.01990631
92	0xbb610761	-0.0034336674
93	0xbd86360b	-0.06553277
94	0xbc6c09bb	-0.014406617
95	0xbdd0992b	-0.101854645
96	0xbdcb0e32	-0.09914817
97	0x3d91fc87	0.07128244
98	0x3caf0f95	0.021369735
99	0x39784061	0.00023675106
100	0x3d800f5a	0.06252928
101	0xbe180b4e	-0.14848062
102	0x3d897d02	0.067132965
103	0xbbf33d8b	-0.007423108
104	0x3c7935a7	0.015210546
105	0xbe1d112a	-0.15338579
106	0x3d218937	0.0394375
107	0xbe12f776	-0.14352211
108	0x3d9e7bf0	0.07738483
109	0x3deafba7	0.1147378
110	0xbd8afee6	-0.06786899
111	0xbd7c96ac	-0.06166713
112	0x3ddbf737	0.10740512
113	0x3d0f6f48	0.035018235
114	0x3cd9134a	0.026498456
115	0xbcc4b3fe	-0.024011608
116	0xbc705955	-0.014669736
117	0x3dd6c611	0.10486997
118	0xbc6eabb0	-0.014567301
119	0xbd4bdf71	-0.049773637
120	0x3dd04dc2	0.10171081
121	0xba91cc80	-0.0011123568
122	0xbd9e3db9	-0.077266164
123	0x3d4b8edf	0.0496968
124	0x3d63623b	0.0555136
125	0xbd0b82e2	-0.034060366
126	0x3c91c550	0.017794281
127	0xbda54fae	-0.08071838
128	0x3ceea917	0.029133363
129	0xbe23304a	-0.1593639
130	0xbdd7441e	-0.10511039
131	0xbca89214	-0.020577468
132	0x3dcc4de6	0.099757954
133	0xbd9c25b6	-0.0762438
134	0x3ca4b351	0.020105036
135	0x3c4976f9	0.012296432
136	0xbe04b25e	-0.12958667
137	0x3d08c445	0.033390302
138	0x3dc08f38	0.09402317
139	0xbdd81670	-0.105511546
140	0x3d199b22	0.03750146
141	0x3a9b12f2	0.0011831208
142	0xbd106770	-0.035254896
143	0xbd1d1a5c	-0.038355216
144	0x3d4518ff	0.04811954
145	0xbe139e61	-0.14415886
146	0x3c109030	0.0088234395
147	0x3d929624	0.07157543
148	0xbdc65a4e	-0.09685193
149	0xbcc6e71e	-0.024280127
150	0x3bf142ee	0.007362715
151	0xbd74af72	-0.05973763
152	0x3d91aad9	0.07112665
153	0xbd0c9975	-0.034326036
154	0xbdeede70	-0.1166352
155	0xbd7c787a	-0.061638333
156	0x3d3ff392	0.046863146
157	0x3d815988	0.06315905
158	0x3d855c23	0.06511714
159	0xbdcf9a7a	-0.10136886
160	0x3d8304bc	0.063973874
161	0xbcd0332d	-0.025415028
162	0xbd319503	-0.043355
163	0x3dca3947	0.09874206
164	0x3d319466	0.043354414
165	0xbd85bdd8	-0.065303504
166	0x3d1d1380	0.038348675
167	0xbd63c683	-0.055609237
168	0xbdce7620	-0.10081124
169	0xbdf6cef6	-0.120511934
170	0x3de6ff32	0.112791434
171	0xbe059ee6	-0.13048896
172	0xbd050107	-0.032471683
173	0xbe00d84c	-0.1258251
174	0xbd8805e4	-0.066417485
175	0x3d2df42c	0.04246919
176	0xbc988322	-0.018617216
177	0x3d506a8c	0.05088286
178	0x3d5ea768	0.05435887
179	0xbdc83145	-0.097750224
180	0x3ca15097	0.019691749
181	0x3cf6c5ab	0.030123552
182	0x3d959f40	0.07305765
183	0xbcad5681	-0.021159412
184	0xbc3783fd	-0.011200902
185	0xbc80cd08	-0.015722767
186	0xba452900	-0.0007521063
187	0x3da0fca0	0.078606844
188	0xbe086e9a	-0.13323441
189	0xbdab9576	-0.08378117
190	0xbe2b6965	-0.16739424
191	0xbdd2081c	-0.10255453

net.8.bias f4 [3]
0	0x3c4aba1f	0.012373476
1	0xbd39389f	-0.045220014
2	0xbde9120e	-0.11380397
