models/models_eval_deep_q/10_model.pkl (torch, 186459 bytes, 8 tensors)

net.0.weight f4 [256, 16]
000000 9f b5 61 3e 04 ea b5 bb 9c 72 45 3e 4c 45 1e be
       0.22041939 -0.0055515785 0.19282001 -0.15456122
000010 1b cc c1 3d dd fe 55 3e 97 85 8b 3d 54 b1 e9 3d
       0.09462758 0.20898004 0.068125896 0.11410776
000020 c8 e1 54 be 98 a7 7d bd 46 59 10 3d 26 2c b1 3d
       -0.20789254 -0.061927408 0.035241388 0.08650999
000030 51 f2 63 be f7 c9 fd 3d 1c b9 24 3d bb ea 10 be
       -0.22260405 0.12392037 0.040215597 -0.14152043
000040 28 3b 0f 3d 00 4a 8c 3b 3e eb 1b be 6a 8c 50 be
       0.034968525 0.0042812824 -0.15226457 -0.20366064
000050 1c 28 2c be b0 e2 61 3e e8 ce 16 3d 7c be ed 3d
       -0.16812176 0.2205913 0.036818415 0.11608598
000060 78 18 3d 3d f8 31 65 be 8a 8e 6d be cc 06 db bd
       0.046165913 -0.22382343 -0.23198906 -0.10694656
000070 60 50 b6 3c 14 fd 64 3e 80 73 70 be f0 03 31 be
       0.022255123 0.22362167 -0.2348156 -0.17286658
000080 10 3f 8b bd 44 2d d3 bd 06 ca 5f be 50 9c 8d bd
       -0.067991376 -0.10311368 -0.2185441 -0.0691458
000090 c4 35 56 be 2c 29 62 3e ca f9 51 be ac 97 7d be
       -0.20918947 0.22086018 -0.20505443 -0.2476489
0000a0 e4 ee b7 bd a0 8a b3 3c 36 65 25 be 24 88 b8 3d
       -0.08981112 0.021916687 -0.1615189 0.09010342
0000b0 a0 60 09 bc a0 42 76 3c 10 00 9c bd 2c 53 cf bd
       -0.008384854 0.015030533 -0.076171994 -0.10123286
0000c0 ec dd 13 be 08 54 16 be 00 71 22 3b 04 fa a3 bd
       -0.14440125 -0.14680493 0.0024786592 -0.08006671
0000d0 48 6a 4a be 98 d9 8f 3d 50 42 bf bd c0 1e 68 3d
       -0.19767106 0.070239246 -0.0933882 0.05666995
0000e0 da c5 04 be 92 e7 4d 3e c2 25 3e 3e 6c 14 ff bd
       -0.129661 0.20107868 0.18569091 -0.12455067
0000f0 d0 94 4f be b0 97 3d be f4 c8 97 3d 74 8d 28 be
       -0.20271611 -0.18514895 0.07411376 -0.1646021
000100 d6 6c a3 3d fe b3 d7 bd d7 0d a7 bd 3f 4a 49 3e
       0.07979743 -0.10532378 -0.081569366 0.19657229
000110 35 c3 5b be 3b d7 34 3e ed 9f fb 3b 7c c8 55 3d
       -0.21461184 0.17660229 0.0076789767 0.05219315
000120 35 74 4c 3e ff 3f b9 bd d5 c5 22 3e 73 7c 6d bd
       0.19966204 -0.090454094 0.1589578 -0.057980012
000130 21 27 74 3d 70 0f 4b 3e b7 c1 52 3e 58 75 51 3e
       0.05960763 0.19830108 0.20581709 0.2045492
000140 d7 22 4d 3e d0 65 bf 3d 2b 19 46 3e 8d 70 1c 3d
       0.20032822 0.09345591 0.19345538 0.038193274
000150 66 9c 0f 3a fd 64 ec 3c 8b 33 a9 bd 8a e7 20 3d
       0.0005478322 0.028856749 -0.08261784 0.039283313
000160 91 8a 6d 3e 2a 72 be 3d 4c b6 4b be a4 da 81 be
       0.2319739 0.09299119 -0.1989376 -0.25362122
000170 0c b1 13 3e 56 9b 19 3d d0 63 0e 3c 03 c7 b8 bd
       0.14423007 0.037501656 0.008690789 -0.090223335
000180 d3 97 5f be 22 24 cf 3d 23 89 81 3e a2 65 bb 3d
       -0.2183526 0.10114314 0.2529994 0.09150244
000190 45 c0 3e be d6 c1 53 3c ce b1 50 be 55 bd 1f bd
       -0.18628033 0.012924632 -0.20380327 -0.03899892
0001a0 5e 8f 64 bd fe 85 68 3e c2 77 1e 3e da a2 2f be
       -0.055800788 0.22707364 0.15475371 -0.17151967
0001b0 bb 22 ea bd f8 18 89 3e 38 74 11 bd 8e 36 79 3e
       -0.114324056 0.26776862 -0.035511225 0.24337217
0001c0 82 e6 be bc c5 f5 00 3e 9d 3a f1 bd 5c 92 4f be
       -0.023303274 0.12593754 -0.11778758 -0.20270675
0001d0 30 b4 1f 3e 1d 5f cb bd ce 3e 1b bd 2a 74 17 bd
       0.1559608 -0.09930251 -0.037901692 -0.036976017
0001e0 be 49 55 3e 46 7e 3a 3d 4b 72 af 3d 56 72 54 3d
       0.20828912 0.04553058 0.085667215 0.05186685
0001f0 3e f4 65 be 4d f9 46 be a2 35 70 be 4a 12 87 bd
       -0.22456452 -0.19431038 -0.2345796 -0.06595285
000200 2e 0b 67 be 81 b0 3f 3e 2c 5d c0 bd 94 22 2a be
       -0.22562858 0.18719675 -0.09392771 -0.16614753
000210 5b c8 3e 3e 79 e9 00 be 29 39 26 3e 83 3b 69 3e
       0.18631117 -0.12589063 0.16232742 0.22776608
000220 bc e7 28 3e 12 f7 62 be 7b 9e 23 3e c8 77 76 be
       0.1649465 -0.22164562 0.15978424 -0.2406913
000230 94 ce 38 be 9d 6a c1 3c bc 7f 5e be 08 1b f9 bd
       -0.18047553 0.023610407 -0.21728414 -0.12163359
000240 c0 6d c8 3b 2c cb 62 be 2c 70 01 3e b2 a9 12 be
       0.006116599 -0.22147816 0.12640446 -0.14322546
000250 98 ed 7b 3d 80 4f 92 3d a0 4d 0c be 74 85 28 3e
       0.061505884 0.0714407 -0.13701487 0.16457158
000260 24 4b e3 3d 28 75 5c 3d 50 bd 34 be a0 fd 4d 3d
       0.11098316 0.053822666 -0.17650342 0.050290704
000270 50 a0 ff bd 28 27 99 3d ea 87 7b be a0 fb d5 bd
       -0.12481749 0.074781716 -0.24563566 -0.10448384
000280 40 b9 14 3d aa 29 3d be 50 c4 0f be 8e cb 0c 3e
       0.03630948 -0.18472925 -0.14039731 0.13749525
000290 54 ed ca 3d 82 21 0d be 1b e9 0f be 50 00 4d be
       0.09908548 -0.13782313 -0.14053766 -0.2001965
0002a0 73 58 66 3e 69 cd 42 be 1a a3 76 be 90 a8 1d 3d
       0.22494678 -0.1902367 -0.24085656 0.03849083
0002b0 36 2d 42 be 0a 65 22 3e 5e 5f 3c 3e 42 76 08 3e
       -0.18962559 0.15858856 0.18395755 0.13326362
0002c0 7d 5c e7 bd 86 b2 4a 3d 6d 28 4e 3d 10 a3 24 3c
       -0.112969376 0.04948666 0.05033152 0.010048643
0002d0 b4 c7 9e bb cd b8 56 3d b7 29 04 be da 50 04 3e
       -0.004845584 0.052422334 -0.12906538 0.12921467
0002e0 b1 44 46 bd f8 3a 30 be 72 13 08 3e 87 d6 59 3d
       -0.048405353 -0.17209995 0.13288668 0.053183105
0002f0 ab 9b 68 3e d9 0e 3d bc 65 ea 84 3d 0c 0d 70 be
       0.22715633 -0.0115391845 0.0649002 -0.23442477
000300 78 7c 10 be e8 da 17 be 1b 8a 12 bc 40 9a 75 3e
       -0.14109981 -0.148296 -0.00894406 0.23984623
000310 51 51 7e 3d d2 c5 2a 3e 10 89 42 3c 41 e8 4e bd
       0.062089268 0.16677025 0.011873499 -0.050514463
000320 db 8e ad bd 4a 64 d9 bd a1 0d 6c be b8 c7 7a 3e
       -0.08474513 -0.10614832 -0.23052074 0.24490249
000330 66 4e 02 3c 65 2a 26 be 1f 04 3c 3e a8 cf 27 3e
       0.007953262 -0.1622711 0.18360947 0.16387808
000340 14 32 ae 3d b0 76 9f bd d4 59 89 3d 80 31 6f bc
       0.085056454 -0.0778631 0.067065865 -0.014599204
000350 18 d3 65 3e 64 e1 27 3e c0 57 e2 bd e6 fa 65 be
       0.22443807 0.16394573 -0.11051893 -0.22458991
000360 4c f9 79 be 30 4f eb bd d8 66 a9 bd 22 f6 15 be
       -0.24411505 -0.11489713 -0.08271569 -0.14644673
000370 c8 c0 51 be 40 e1 68 3d 80 dc 45 3b a0 93 2c bc
       -0.20483696 0.05685544 0.0030191243 -0.010533243
000380 78 96 20 3e e3 d1 dd bc e6 8f d6 3c 04 60 56 be
       0.156824 -0.02707762 0.026191663 -0.20935065
000390 14 d4 05 3c 90 8c 1d 3e e3 c9 82 be b8 f5 94 3d
       0.008168239 0.15385652 -0.25544652 0.0727343
0003a0 dd ae db bc 95 55 ea 3d a8 df 02 3e e8 90 38 3e
       -0.02681678 0.11442105 0.1278063 0.18024027
0003b0 31 36 0e 3e 35 1d a2 bd dc e3 85 39 24 22 29 3e
       0.1388786 -0.07915727 0.00025537505 0.1651693
0003c0 a2 6b 2c 3e 8c 06 1a be 79 5c e7 3d 83 29 13 3e
       0.16837934 -0.1504156 0.11296935 0.14371304
0003d0 01 39 d5 bd 84 95 62 3e 73 b4 d5 bc fa 36 0c be
       -0.10411263 0.22127348 -0.026087021 -0.13692847
0003e0 a2 0b ef bd 64 d0 33 3e 12 18 5d 3e 07 ca 48 bd
       -0.11672141 0.17559963 0.21591213 -0.049020793
0003f0 21 1d d3 bd 33 50 0c 3d 14 de d1 bd 9d 3b 84 be
       -0.1030829 0.03425617 -0.10247436 -0.2582673

net.0.bias f4 [256]
000000 03 91 17 be 90 df a7 bc 38 02 b1 bd 12 64 33 3e
       -0.14801411 -0.020492345 -0.08643001 0.17518643
000010 91 82 35 3d 51 43 45 be 31 1f 7a 3e 1e b4 40 3d
       0.04431397 -0.1926396 0.24425961 0.047046773
000020 d4 51 db 3d ac b1 df 3d 04 a7 17 3e 4e 2f 2a be
       0.10708967 0.1092256 0.14809805 -0.16619608
000030 44 c6 b1 3d 54 9b 78 be cb 1b 9a bd 34 63 cf 3d
       0.08680394 -0.24278003 -0.07524832 0.10126343
000040 7c 02 78 be 9c a9 23 be 4c db 84 3e 2a 8b 26 3e
       -0.24219698 -0.1598267 0.2594856 0.16264024
000050 9a 20 5f 3e 5f 25 5e 3e c8 c7 16 3e 9d 9d 67 3e
       0.2178978 0.21693943 0.14724648 0.22618718
000060 bc 8e f2 3d f6 b0 24 be e6 81 f6 3d 48 dd 60 3e
       0.11843631 -0.1608313 0.12036495 0.21959412
000070 04 16 6d 3e f0 a0 6e be 05 b9 62 3e 20 f3 42 bd
       0.2315293 -0.2330358 0.22140892 -0.047595143
000080 e1 6e 4f be 22 86 08 be 9e 2c 61 be da b5 3e be
       -0.2025714 -0.13332418 -0.21989676 -0.18624058
000090 58 2d 80 bd 89 67 2c 3e 08 5c 76 bd 98 1e d3 3d
       -0.06258649 0.1683637 -0.06014636 0.1030857
0000a0 44 1f c5 3d ca 1b 6f bd 3f 5e fa 3d 22 2d 46 be
       0.09625104 -0.05837611 0.12225007 -0.19353154
0000b0 c7 10 6b 3e 6b 84 2c 3e 19 bc a5 3c e2 51 1a be
       0.22955619 0.16847388 0.020231294 -0.15070298
0000c0 7d a2 b2 3d 00 7a 56 3c 6a b3 8e 3e 27 b6 03 3b
       0.087223984 0.0130906105 0.27871257 0.0020097585
0000d0 48 9f 01 be 7e 8b 13 3e f8 2d fb bd 10 dd 37 3d
       -0.12658417 0.14408681 -0.12264627 0.044888556
0000e0 fc 13 1a be 64 86 8c bd 50 4d a4 bd 7c 39 2f 3e
       -0.15046686 -0.068615705 -0.08022559 0.17111772
0000f0 f0 95 2d bd c1 d4 ea bd b7 72 9e bd 14 81 2a 3e
       -0.04237932 -0.11466361 -0.07736724 0.16650802
000100 a8 35 62 3d 90 c8 5e be a0 31 25 3c a0 58 17 3e
       0.05522695 -0.21756196 0.010082632 0.14779902
000110 7e 27 65 3e b8 69 89 3d d2 e1 73 3e e7 fa 25 bc
       0.22378346 0.067096174 0.23816612 -0.010130621
000120 11 8f df 3d c3 9c 41 be 63 58 df bd 3a 5a 66 be
       0.109159596 -0.18907456 -0.1090553 -0.22495356
000130 df 7d 08 be a2 4f 84 3d a8 c6 40 3e f6 f6 57 3e
       -0.13329266 0.06460501 0.18825781 0.21090302
000140 84 b2 fe 3b 30 2e 2b 3e 94 21 ea bd f6 7a 6a be
       0.0077727456 0.16716838 -0.11432186 -0.22898468
000150 f8 80 36 3d d4 f8 0d 3e a9 84 d4 bd eb 77 d6 3d
       0.044556588 0.13864452 -0.103768654 0.10472091
000160 fc ce 68 be e8 2e 80 bd c7 d1 a4 bd 00 06 87 bc
       -0.22735208 -0.06258947 -0.08047824 -0.016482353
000170 5f 07 08 3e f0 b4 e5 3d fa 87 d4 3d 80 7f 51 bd
       0.13284062 0.11216152 0.10377498 -0.051146984
000180 56 58 42 3e 18 0f 2b bd 5d 61 e1 bc d1 da 00 3e
       0.1897901 -0.04176244 -0.027512247 0.12583472
000190 80 44 5d 3e 57 c1 58 be 61 f0 1c 3e 64 47 ed bd
       0.21608162 -0.21167503 0.15326072 -0.11585882
0001a0 e0 8a 1d be 6d f0 bb bd 5e 97 9a 3d 3e e9 20 3e
       -0.15385008 -0.09176717 0.07548402 0.15713975
0001b0 1e ee f9 3b 10 77 db bd c6 ce 46 3e d8 e0 a9 3d
       0.0076272627 -0.10716069 0.19414815 0.08294839
0001c0 18 11 16 be 7a 46 e7 bd 2c d4 e1 3d 84 e1 25 3e
       -0.14654958 -0.11292739 0.11026797 0.16199309
0001d0 80 29 73 be d8 34 5d be 23 cc e2 3d d8 25 47 3e
       -0.237463 -0.2160219 0.11074092 0.1944803
0001e0 c0 4a 13 3e d8 a7 03 3e 15 76 58 be 44 64 7e 3e
       0.14383984 0.12856996 -0.21138795 0.24842936
0001f0 e1 0b 0f 3e 0e af ad ba 89 8d 6a 3e fb 88 32 3e
       0.13969375 -0.0013251023 0.22905554 0.17435066
000200 ea eb 6f bd 04 92 01 be 90 92 53 bd a2 08 1b 3c
       -0.058574595 -0.12653357 -0.051653445 0.009462507
000210 da 08 fb 3d e3 d5 58 3e 08 b7 cf 3d c4 f6 e6 bd
       0.12257548 0.21175341 0.10142332 -0.112775356
000220 d4 f8 b8 3d b1 83 b7 3c 7e a7 34 be e4 4e 6e 3b
       0.09031835 0.022401663 -0.17642018 0.003636294
000230 37 b4 1d 3e ee cf 21 be c9 3f 48 3d 7c 43 3e be
       0.15400778 -0.15801975 0.048888955 -0.18580431
000240 3c 48 79 bc 90 54 7c 3d c6 8d c9 bc 84 89 6f bd
       -0.015214976 0.061604083 -0.024603736 -0.058480754
000250 42 ae 37 3e e0 f4 55 3d 26 dc 9d bd e7 1c f4 bd
       0.17937568 0.052235484 -0.077080056 -0.11919575
000260 fc 58 4a 3e 90 cb b1 3d 80 54 0c 3e c7 22 2f 3e
       0.19760507 0.086814046 0.13704109 0.1710311
000270 84 85 18 be 3c 00 14 3e ed 96 15 3e 06 53 da 3d
       -0.14894682 0.14453214 0.14608355 0.10660367
000280 01 88 3c 3e 44 c7 3b 3e 3e e0 e1 bd 80 5e 54 be
       0.18411256 0.18337733 -0.11029099 -0.20739174
000290 3e 10 21 3e 0d a3 33 3e c0 4e e6 bb d5 9d a4 3c
       0.15728852 0.17542668 -0.0070284307 0.020094791
0002a0 cb 07 6a 3e 84 13 9f 3d 05 50 8e bd 71 af 86 3d
       0.22854535 0.07767394 -0.06948856 0.065764315
0002b0 58 11 f5 bd 73 3b 70 3e 5c 4f 1d 3d c6 0b 47 3e
       -0.11966199 0.23460178 0.03840576 0.19438085
0002c0 66 35 21 3e 49 03 7e be 4d d7 25 be eb 78 76 3d
       0.15743026 -0.2480594 -0.16195412 0.06017391
0002d0 3e 15 a7 3d 90 89 b0 bc 21 01 23 be 24 d4 51 3e
       0.081583485 -0.02154997 -0.159184 0.20491081
0002e0 5c af 04 3e 82 70 39 3e 95 95 36 3d c0 0d 4b 3e
       0.1295752 0.18109325 0.044576246 0.19829464
0002f0 80 bb 32 be e1 61 e3 bd d9 58 65 be ac 43 1b 3e
       -0.17454338 -0.11102653 -0.22397174 0.15162534
000300 2c fe 3b be 34 4b 22 3e 97 9a 9a bd a1 a6 76 bc
       -0.18358678 0.15849 -0.07549017 -0.015054376
000310 c5 0b bf bc 35 de ad 3d 54 29 fd 3d 10 a5 7e be
       -0.023321042 0.08489648 0.12361398 -0.24867654
000320 70 2c 27 bd 82 ad 25 3e 7b 51 6a 3e cd 5e 29 3e
       -0.040813863 0.16179469 0.22882645 0.1654007
000330 ee 68 63 3d 65 e5 76 3e 7e 2b 73 3e 36 8c c7 bd
       0.05551999 0.24110945 0.2374706 -0.0974354
000340 28 74 81 3c d6 11 10 be 25 4c 03 3e 26 0a 39 be
       0.015802458 -0.14069304 0.12822016 -0.18070278
000350 94 09 ef bd 64 a4 6a 3e 88 db 1b be b7 2c d2 3d
       -0.11671749 0.22914273 -0.15220463 0.10262435
000360 ec c9 81 3e 61 09 67 3e 9c e2 e0 bd 19 ea 20 3e
       0.25349367 0.22562172 -0.10980722 0.15714301
000370 10 ec 15 be 0f ff 2f 3e 08 7b 8d bd 74 be 0c 3e
       -0.14640832 0.17187141 -0.06908232 0.13744527
000380 ba 55 fb bc 66 7e 24 3e fb 85 41 3d ef 0b 71 3e
       -0.030680526 0.16063842 0.047246914 0.23539709
000390 a1 52 05 3e aa 57 c9 3d 80 cb 6c be 30 94 ca bc
       0.13019802 0.09831174 -0.23124504 -0.024728864
0003a0 9a 83 0d be 4c 45 14 be 00 19 5e be ca 6b a2 3d
       -0.13819733 -0.1447956 -0.21689224 0.079307154
0003b0 1c 00 26 3e d0 8b 0b 3d 10 ec c7 3c d8 2b b2 bd
       0.16210979 0.034068882 0.024404556 -0.08699769
0003c0 d3 f7 a8 bd 10 7f 9e bc c9 90 42 3e 07 be c6 bc
       -0.08250394 -0.019347697 0.19000544 -0.024260534
0003d0 71 66 1d be 58 5f ee bd 6c 88 5a be 33 c2 0b 3e
       -0.1537111 -0.11639279 -0.21341103 0.136483
0003e0 cc 72 60 3e 40 31 87 3c 67 b7 a4 bc 7f 84 0b 3e
       0.21918792 0.016502976 -0.020106984 0.13624762
0003f0 16 d6 a7 3d c4 9c e2 3d 77 f8 cb 3c 70 db 9c bc
       0.081951305 0.11065057 0.02489875 -0.019147605

net.3.weight f4 [128, 256]
000000 9b 65 1d 3d 08 8c dc 3c 24 7e f8 3c 28 b9 04 bc
       0.038426977 0.02692224 0.030333586 -0.008100785
000010 21 46 4f 3d 72 92 b3 bc f8 af 36 bc 19 3d af 3c
       0.05060399 -0.021920417 -0.011150353 0.021391438
000020 04 f6 3d 3d ca 96 7a 3d bd e2 33 bd 30 10 74 3b
       0.046377197 0.06117896 -0.043917406 0.0037241094
000030 72 f3 3d bd e0 10 7a 3c 8d 80 08 bd 19 f8 d0 3b
       -0.046374746 0.015262812 -0.03332572 0.006377232
000040 76 89 ea bc f2 17 32 bd c6 84 0f 3d 00 18 63 3d
       -0.02863 -0.043479867 0.035038732 0.05544281
000050 f5 06 48 bd 1b 6f 46 bd 6e e6 29 3d 15 90 88 bc
       -0.04883476 -0.048445802 0.04147952 -0.016670266
000060 c6 3d 29 3d 70 0b f5 3b bf 1d dd 3c ff d3 45 bc
       0.041318677 0.00747817 0.026991723 -0.01207447
000070 bf dd 65 3d fc d8 3d 3d cd 39 de bc 18 c1 1d bc
       0.056119677 0.04634951 -0.027127171 -0.009628557
000080 da 9f 32 bd 78 e0 7e 3c aa b2 73 3d a8 56 a7 bc
       -0.043609478 0.015556447 0.05949656 -0.020427063
000090 f5 bc 00 3d 50 b8 c8 3c 84 00 b6 3c 38 54 59 bd
       0.031430203 0.02450195 0.022217043 -0.053058833
0000a0 24 72 bb bc 92 f0 5b bc 74 80 1f bd 74 5d da bc
       -0.022881575 -0.013424056 -0.03894086 -0.02665589
0000b0 7d 97 f0 bc 0a b9 b2 bc d3 ea 96 bc e0 c0 02 3c
       -0.02936911 -0.02181675 -0.01842252 0.007980555
0000c0 a2 e2 3d bb 0c ff 22 3d be 53 61 3d 63 21 08 3d
       -0.0028974195 0.039794013 0.055011503 0.033234965
0000d0 d2 1b 9c 3c cb 0f 76 bd 47 23 58 3d 08 e0 89 3c
       0.019056235 -0.060073655 0.052768018 0.01683046
0000e0 b0 01 f5 bb b8 cb 6c bc 26 52 41 3d 82 70 1e 3b
       -0.007477008 -0.014452867 0.047197483 0.0024175947
0000f0 4c 57 98 bc bd 2b 35 3d f2 2e c7 3b 1b de a7 3c
       -0.018596314 0.044231165 0.0060785944 0.02049165
000100 80 d5 62 3d d4 a8 9e bc 80 cf 63 3d 98 a4 7e 3c
       0.05537939 -0.019367613 0.05561781 0.015542172
000110 94 14 bb bc 10 8e 92 3c cf 01 4c 3d d2 cc 14 bc
       -0.02283696 0.017890006 0.049806412 -0.009082036
000120 18 3c f1 bb ae c0 2c bd 63 2a 53 3b 46 64 1b bd
       -0.0073619 -0.04217594 0.003222131 -0.037937425
000130 24 1f 0b 3b 3d d8 61 3d aa b4 0f bd 70 35 65 bc
       0.0021228278 0.05513786 -0.035084404 -0.013989791
000140 54 c2 8f 3c 92 77 a7 3c ed c8 f1 bc 02 73 2b 3d
       0.017548718 0.020442758 -0.029514754 0.041857727
000150 c0 5d 1c 3d bb 89 38 3d 62 af dd 3b 77 13 d6 bc
       0.038175344 0.045053225 0.006765292 -0.026132328
000160 bc fa 5d 3d 0b ef 04 ba de 28 41 bd 60 ba 83 bb
       0.054194197 -0.00050710206 -0.047158115 -0.0040200204
000170 d1 22 5d 3d a0 ca eb bc 2c 93 ea bc b2 43 31 3d
       0.05398828 -0.028783143 -0.02863463 0.04327745
000180 10 59 c7 bb 20 70 77 3b cf 76 82 3c 45 79 79 3d
       -0.006083615 0.003775604 0.015925793 0.060906667
000190 7d 13 54 bd 59 de 0a 3c 87 5c 40 bd d6 8e 20 bc
       -0.051776398 0.008475863 -0.04696324 -0.00979968
0001a0 8e 15 49 bd b7 c2 3c bd b0 e3 14 3d 01 32 0b 3c
       -0.04909282 -0.046084132 0.036349952 0.008495809
0001b0 1e 35 3b bd 4e d4 66 bc 87 e1 90 bd 13 2b a5 3c
       -0.045704953 -0.014088703 -0.07074266 0.020162141
0001c0 f0 9c 10 bd 5a b8 5b 3d 52 2b 54 3d 00 a1 0e 3b
       -0.035305917 0.05364261 0.051799126 0.0021763444
0001d0 ca 66 37 3c 58 52 70 3c ec 67 56 3d 90 6f 46 bd
       0.01119394 0.01466807 0.0523452 -0.048446238
0001e0 f0 82 9f 3b 0f f1 af bc 67 df 54 3d fb aa 61 3d
       0.004867904 -0.02147725 0.051970866 0.0550947
0001f0 be 67 65 bd 29 af 87 3d ae 56 29 3d 79 32 3c 3d
       -0.05600714 0.06625206 0.04134243 0.045946572
000200 be 9a 5f 3d 38 e2 fe 3c e4 66 df bc 1f a8 c7 bc
       0.054590933 0.031113729 -0.027270742 -0.024372159
000210 80 75 7e bb 9f 7b 14 bd 38 8a 7d 3d 07 a9 61 bd
       -0.003882736 -0.036250707 0.061899394 -0.055092838
000220 fa 3e a8 bd ad f9 3b 3d 4e 4f 5d bd a5 66 d0 3c
       -0.08215137 0.045892406 -0.05403071 0.02543957
000230 24 f4 1c 3d 20 5a 6d 3d 4d 75 4d 3c 74 7c 67 bd
       0.03831877 0.057947278 0.012540174 -0.056515172
000240 ec 44 21 3d 30 45 76 bd 2d 05 b8 bb ff 61 00 3c
       0.03937237 -0.060124576 -0.0056158514 0.007835864
000250 ad e3 11 bc 46 88 84 3b 80 db 9c bc 6b 7f e0 3b
       -0.00890438 0.0040445654 -0.019147635 0.006851127
000260 58 48 2e 3c 84 6e 30 bd 88 be 67 bd 88 e4 e0 bc
       0.010637365 -0.043074146 -0.05657819 -0.027452722
000270 4b 00 fa 3c a6 9b 02 3d b9 82 69 bd c8 33 ed bb
       0.030517718 0.03188672 -0.057009432 -0.007238839
000280 9a 04 0e bd 70 2b a6 3c a9 bc 08 3d d8 c7 18 3d
       -0.034672357 0.020284384 0.033383045 0.03729996
000290 cf b2 57 3d ed 75 05 bc c8 aa 24 3d 36 b7 0a 3b
       0.05266076 -0.0081457915 0.040201932 0.002116633
0002a0 c8 77 84 3d 1d e2 95 3c 03 d0 1c 3d c9 c0 97 bd
       0.06468159 0.018296296 0.038284313 -0.07409818
0002b0 c8 85 e0 3c b5 b8 c3 bc 79 ef 9a bc 3a 23 de 3c
       0.027407542 -0.023891786 -0.018913018 0.027116407
0002c0 30 80 27 bc e7 83 a7 3c 68 86 07 3b 5e ed 43 bc
       -0.010223433 0.020448638 0.0020679478 -0.011958448
0002d0 0d aa 8a 3c 20 2d 8c bc 1d 96 02 3d 06 6a 66 bd
       0.01692679 -0.017111361 0.03188144 -0.056253456
0002e0 fe 7c c3 bc 32 d0 06 bd 14 46 e7 bc 6b a3 41 bd
       -0.023863312 -0.032913394 -0.028231658 -0.04727499
0002f0 f4 30 c4 ba 37 f7 8d 3c 2e 3f 58 bd 00 af 5a 3d
       -0.0014968202 0.017329795 -0.052794628 0.05338955
000300 8b c7 1d 3d 56 44 fa bb d7 db 19 bd 9b ed b0 3c
       0.038520377 -0.007637541 -0.03756317 0.021597674
000310 74 73 b1 3c 8b 94 a3 bc 3f 13 fc bc 7e be 58 bd
       0.021661498 -0.019968292 -0.030770896 -0.052916043
000320 f0 3d ef bc f0 df cb bb b7 9a 43 bd 48 3a 84 3d
       -0.029204339 -0.006221764 -0.04775497 0.06456429
000330 dd f9 46 3d 14 75 ce 3c 3f cb 43 3d 2c ba 2b 3d
       0.048578132 0.025202312 0.047801252 0.041925594
000340 ca 56 ba 3c 9a 48 36 3d 6e e8 5a bd 95 d0 54 bd
       0.022746462 0.044502832 -0.05344432 -0.05195673
000350 40 8b 3f bc 7e d8 d1 bc 6f 1d ad bb ed 2a ba 3c
       -0.011690915 -0.025615927 -0.00528305 0.022725547
000360 e8 e7 07 bc ec 10 17 bc 3e 5a 34 bd 98 41 1a 3d
       -0.008295037 -0.009220343 -0.044031374 0.03766021
000370 30 be bc 3b a7 f8 97 3c 48 3a b6 3c 40 9b 10 3d
       0.005759977 0.018551184 0.022244588 0.035304308
000380 65 0a 7a 3d c4 49 9b 3c ef c1 76 3d eb d8 5a bd
       0.06104507 0.018956073 0.060243543 -0.053429525
000390 56 c2 37 3b 72 f9 88 bd 88 5a 56 bc 00 a0 db 37
       0.0028039417 -0.06688203 -0.013083108 2.618134e-05
0003a0 1e b5 7e bd 62 06 83 bc 18 cc 56 3c 16 f6 41 3d
       -0.062184446 -0.015994254 0.013110183 0.047353826
0003b0 d0 51 98 bb 73 11 f2 3c c0 0c 56 3b e4 e1 a1 bc
       -0.0046484247 0.029549336 0.0032661408 -0.019761033
0003c0 83 bd 1e 3c a2 37 80 bd 8c a6 06 3d 4c e7 f3 bc
       0.009688738 -0.06260611 0.032873675 -0.029773377
0003d0 df 14 1c 3d 60 26 fd bc b8 f3 5c 3d 72 25 e8 bc
       0.03810584 -0.030902088 0.053943366 -0.028338168
0003e0 ac 87 11 3c 0c 8b a8 bc a0 c3 06 bd fe 21 81 3d
       0.008882444 -0.020574115 -0.032901406 0.063053116
0003f0 bf 9f 67 3c b2 ff 43 bd ca 4a d6 bc 24 36 f8 3c
       0.0141372075 -0.047851272 -0.02615871 0.030299254

net.3.bias f4 [128]
000000 b7 b8 3f 3d d2 db 53 3b 8d 16 a7 3d 58 6c 22 bc
       0.046807017 0.0032327068 0.08158598 -0.0099135265
000010 b9 b9 91 bd ec 4b 89 bc 8a 3a ee 3b 3d 6a d6 bb
       -0.07115502 -0.016759835 0.007270162 -0.0065434263
000020 41 12 1f 3d 26 e7 ef 3a e5 b5 5f 3c f8 72 a9 bc
       0.038835768 0.001830314 0.013654207 -0.020684704
000030 71 24 96 ba 46 dd 59 3c 69 53 41 3d b7 90 87 bc
       -0.0011454952 0.013297385 0.047198687 -0.016548498
000040 47 3c 88 3d b6 d7 85 bd d6 f7 35 bd 2c 85 90 bc
       0.06652122 -0.06535284 -0.044425808 -0.017641626
000050 a8 f5 d5 bc c1 de 09 3d 0e e7 6b bd f8 04 7d bd
       -0.026118115 0.0336597 -0.057593398 -0.061772317
000060 16 98 66 3d 2a 97 0a 3d b8 6f 8a bd f0 73 11 3d
       0.056297384 0.033835568 -0.0675959 0.035510957
000070 96 57 58 3d b3 1b 07 bd 42 fc 23 bd ee e7 0a 3d
       0.052817903 -0.0329854 -0.040035494 0.03391259
000080 c1 49 e2 bc 54 66 f3 3c cf 91 ec bc c7 4b e4 3c
       -0.02762306 0.02971188 -0.02887812 0.027868165
000090 3c 60 53 bd 4e fe 9d 3b 25 aa eb bc ee e7 21 bd
       -0.051605448 0.0048215752 -0.028767655 -0.039527826
0000a0 68 4e 8b bd 80 83 a2 3a 96 04 86 3d a0 09 54 3d
       -0.06802064 0.0012398809 0.065438434 0.05176699
0000b0 98 a5 80 bc 93 88 7b bd 00 88 20 bc 7a 30 0e 3a
       -0.015703961 -0.061409544 -0.00979805 0.00054240937
0000c0 fd 40 70 bd ea 72 3c 3d 4b 58 98 3c b4 82 1e bd
       -0.058655728 0.046008028 0.018596789 -0.038698867
0000d0 be 38 cb 3c b4 3c 7c 3d aa 11 34 3d f2 56 2a 3d
       0.02480733 0.06158133 0.04396216 0.041586824
0000e0 b7 c2 c9 3c 6a 21 21 bd 70 83 19 bd cc a5 06 3d
       0.02462898 -0.039338507 -0.037478864 0.03287296
0000f0 0e 39 4f bd 20 fe 15 3c 94 0a d1 ba c9 65 c3 bc
       -0.05059152 0.009154826 -0.0015948587 -0.023852246
000100 38 3a f9 3c 47 17 19 bd 4a 55 92 3d fc ec a7 bc
       0.030423269 -0.037375715 0.07145174 -0.020498745
000110 85 6a 60 bc a0 b8 9e 3c 89 be 53 3d 25 fe 0b bd
       -0.013697271 0.019375145 0.05169538 -0.034177918
000120 d1 41 70 ba 16 1e 80 bc b8 7b 29 bd 06 f0 57 3c
       -0.0009165081 -0.015639346 -0.041377753 0.013179785
000130 0e 4c 99 3c 2c 95 b5 bc 32 e3 7a 3d 50 02 6c bc
       0.018713024 -0.022165857 0.061251827 -0.014404848
000140 53 89 90 3d c8 c7 85 3d e9 05 31 3d 8c 95 15 3d
       0.070574425 0.06532246 0.043218527 0.036519572
000150 bf b8 23 3d ec f5 e3 bc 30 e6 c8 3c 57 fc 67 3d
       0.03997111 -0.027827226 0.024523824 0.056637134
000160 56 39 4f 3c 64 4a 2c bd 9a 11 bb 3b 7f 39 aa 3b
       0.012647947 -0.042063132 0.0057088854 0.0051948423
000170 66 b0 17 3d ee 47 e6 3b eb 42 7a bd fd e5 ff bc
       0.03703346 0.0070276177 -0.061098974 -0.031237597
000180 1d 3c 67 bd 68 02 52 bc 15 bf 44 3d bd 8a 76 3b
       -0.056453813 -0.0128179565 0.048033793 0.0037619316
000190 d4 7d e6 bc bd 42 5f bd 30 8f 42 3c f0 fd 1d bd
       -0.028136171 -0.054507006 0.011874959 -0.03857225
0001a0 c6 5c 75 bd 90 0a 9e 3b 5d 96 fd bc 9f b0 43 3d
       -0.05990293 0.0048230365 -0.030955488 0.04777586
0001b0 a4 3e b3 3c 9c ab 0b 3d ef b4 35 3d b0 41 23 bc
       0.021880455 0.034099206 0.044362005 -0.009964392
0001c0 43 0a c5 bb e2 66 3e 3d f2 45 3a bd 25 79 0f 3d
       -0.006013186 0.046484835 -0.04547686 0.03502764
0001d0 68 74 1b 3d 2f cd 6c bd 92 6f 30 bd 3b bb 06 3d
       0.03795281 -0.057812866 -0.04307515 0.0328934
0001e0 d4 00 60 bd 2c c1 02 bc a3 e1 bb 3c 38 8e c2 bc
       -0.05468829 -0.007980626 0.02293474 -0.023749456
0001f0 d9 4a 4e bd 71 ec e6 bc f3 ea 87 3c 55 7e 9b 3b
       -0.05036435 -0.028188916 0.016591525 0.0047452846

net.6.weight f4 [64, 128]
000000 fd 77 2f bd 84 6f 89 3d ed 98 71 ba c4 3c 84 bd
       -0.04283904 0.06710723 -0.0009216208 -0.064569026
000010 ab 1e a6 bc 6f 3d 69 bb a3 24 9d bd e7 28 c7 3c
       -0.020278296 -0.0035589596 -0.076730035 0.024311496
000020 e3 ec 02 bd af f2 0b 3d 90 e2 b3 bc 27 8c a4 3c
       -0.031964194 0.034166988 -0.02195862 0.020086361
000030 55 4a 52 3c 12 f4 8d bd 45 26 e6 bc ce ac 81 3b
       0.012835105 -0.06931318 -0.02809442 0.0039573675
000040 4a 2e a8 3c 5f 15 b0 3d 9c 17 9a 3c bf 5d 31 bd
       0.020529885 0.08597826 0.018810086 -0.043302294
000050 5a c6 1d bc 95 8d df bc 30 c3 9e bd fc 58 a4 3d
       -0.00962981 -0.027289191 -0.07752073 0.08024785
000060 2c ee a1 3d 34 01 88 3d ed af 65 3d f6 9e b6 bc
       0.07906756 0.066408545 0.05607598 -0.022292595
000070 e3 51 52 3d 52 ab 58 3d c3 e0 46 3d 06 cf 36 3d
       0.051347625 0.05289776 0.048554193 0.044631027
000080 63 6d ba 3d 1e f2 8c bd fb 61 2a 3d ec 5b 0b bc
       0.09102895 -0.06882118 0.041597348 -0.008505803
000090 d7 dc 88 bd af 46 b7 bd 85 3c d8 bc 68 bd 5d bd
       -0.06682747 -0.08949029 -0.026396045 -0.05413571
0000a0 72 bc f2 3c 44 78 b2 bd a5 45 64 3c 9b c3 5e bd
       0.029630873 -0.08714345 0.01393262 -0.054385763
0000b0 01 99 82 3c a6 a9 05 bd f3 74 bb 3b 35 53 a5 3d
       0.015942099 -0.032632492 0.0057207285 0.08072511
0000c0 c3 36 8d 3d 9e 03 b2 bb aa 50 fc bc 7e 8d e3 3c
       0.068952106 -0.00543256 -0.030800182 0.02777743
0000d0 e5 12 98 3d 11 1b a8 bd 59 1a ba 3c ee 7c 5f bb
       0.07425479 -0.082082875 0.022717642 -0.0034101564
0000e0 8f 53 b3 3d c6 24 1f bd 47 6e 00 bc 47 f1 f1 b9
       0.08756172 -0.03885343 -0.007838792 -0.00046146868
0000f0 d3 96 e7 3c 96 21 8a bd 1f fb 6a bc be 30 d0 bc
       0.02827016 -0.06744687 -0.0143420985 -0.025413867
000100 34 32 4c bd 15 95 99 bd 76 11 22 bd 42 51 98 bd
       -0.049852565 -0.07499138 -0.039567433 -0.07437374
000110 8a 83 4b bc fd 0f 80 bd 89 8f 95 bd bf 44 3b bd
       -0.012421498 -0.062530495 -0.07302768 -0.04571986
000120 c5 a3 e2 3c 8e 1d 05 bd 3c 51 b3 bd c0 99 ab bd
       0.027665982 -0.03249889 -0.087557286 -0.08378935
000130 5e 5c 4e 3b 21 69 ae bd ae c0 96 bd 33 09 1a 3d
       0.003148816 -0.085161455 -0.073609695 0.03760643
000140 62 fd 78 bd 81 e5 ac bd dd fc c0 bc 9f a4 9f 3c
       -0.06078852 -0.08442212 -0.023558075 0.019487677
000150 f5 ab 6f 3b d8 84 ab 3d ac 07 f2 bc db 92 42 3d
       0.0036571 0.08374947 -0.029544674 0.047503334
000160 b5 c2 b6 3d da 1d ec bc f0 c2 8b 3d 36 e9 69 bc
       0.08923856 -0.028822828 0.06824291 -0.014276793
000170 c6 21 1c 3d dd b4 95 3d f2 3c 64 3c c6 c4 2f 3d
       0.038118146 0.073098876 0.013930546 0.042912267
000180 52 72 e1 3b 56 ff 1f bc b9 e3 08 3c 39 4d a1 bd
       0.006880083 -0.009765467 0.008355075 -0.07876057
000190 7e 0d fb 3c 88 cb 82 bb 40 c0 92 3c 8b eb 83 3c
       0.030646082 -0.003991548 0.017913938 0.016103527
0001a0 71 d4 31 3d 3b 25 b1 3d 73 3c 54 bc fa c5 a8 bd
       0.04341549 0.08649679 -0.012953865 -0.08240886
0001b0 01 55 86 bd f2 d6 5e 3d 18 25 67 bc 8d 9d 98 3c
       -0.06559182 0.054404207 -0.014107965 0.018629814
0001c0 af f5 26 3a ca 3a 9e bc 1e 2d bd 3d 5e 4b a0 3d
       0.0006369007 -0.019315142 0.09237121 0.07826875
0001d0 ce 73 7a bd dd c8 97 3c cd cb a4 bc d8 3c 08 3c
       -0.061145596 0.018528396 -0.020116711 0.0083152875
0001e0 6c 49 45 3d 99 61 a9 3d 86 79 48 bc 92 bc 71 3b
       0.048165724 0.082705684 -0.012236005 0.0036886078
0001f0 e2 a9 f4 3c 27 cf 41 3d 33 b3 1b bd e4 d9 46 bd
       0.029866163 0.047316696 -0.038012695 -0.04854764
000200 79 16 76 bd 54 a2 4a bc 99 4b 43 3d d2 0e 8b bd
       -0.060080025 -0.012367804 0.047679517 -0.06789936
000210 ed 8a ac bc 7b c5 f1 3c 11 fa 75 3c 01 79 2f bd
       -0.021062339 0.029513111 0.015013234 -0.042840008
000220 fe a7 0b 3b ca 0e 13 3d b4 22 9f bd 36 87 8f bc
       0.0021309848 0.035902776 -0.07770291 -0.017520528
000230 4f fe 98 3c d7 51 9b bd d5 e8 8e 3b 9f e7 5a 3d
       0.018675951 -0.07583969 0.004361252 0.053443547
000240 f0 a4 04 3d 45 16 a5 bd de 35 51 bd b4 39 83 3d
       0.03238386 -0.08060888 -0.051076762 0.064074904
000250 9e 44 0e bd b5 5e 3f 3d aa ed 7d 3d 20 27 fa ba
       -0.034733407 0.04672118 0.061994232 -0.0019085146
000260 c3 5d af bd 1a d8 83 3d ed 66 6d 3d 8c c8 97 3c
       -0.085628055 0.064377025 0.057959486 0.018528245
000270 0f 99 09 bd b0 86 3c bc 2f dd a6 3c fe 65 08 bd
       -0.033593234 -0.011506721 0.02036914 -0.033300392
000280 43 4a 30 bd fd 7e 69 bd bb 02 9c bc 35 93 f1 3c
       -0.04303957 -0.05700587 -0.01904427 0.02948914
000290 85 5f 39 bd 2f 87 41 3d 42 69 9b bd 5f 41 89 3c
       -0.04525711 0.04724806 -0.07588436 0.016754804
0002a0 55 95 04 3d 1d d1 ab bd 6a 61 c8 3c 85 05 49 bc
       0.032368977 -0.083894946 0.024460513 -0.012269382
0002b0 78 46 97 3a 4b d9 8c 3d ad b2 57 3d c5 3a 4c 3d
       0.0011541387 0.06877383 0.052660633 0.049860734
0002c0 46 07 77 3a 29 b9 61 bd 3f 6c 6f 3d 94 bf 95 3d
       0.0009423386 -0.055108223 0.05845284 0.07311931
0002d0 46 ef ab 3b 31 fc 7b bd a6 be 29 bd c0 a6 5f bd
       0.0052470295 -0.061519805 -0.041441582 -0.054602385
0002e0 e3 9b 52 bd 8b bd 87 bd 58 a2 77 3c 5a c6 9e bd
       -0.051418196 -0.06627949 0.015114389 -0.07752676
0002f0 35 7c 39 bd 88 84 7e bc b4 70 9d 3d 6d ed 18 bd
       -0.04528447 -0.015534528 0.07687512 -0.037335802
000300 d2 18 0a bc 2e ca 2a bc c7 ad a2 bd 0d 9a 76 3c
       -0.008428769 -0.01042418 -0.07943302 0.015051377
000310 56 e3 80 bd d9 5e 2d bd 43 ef 8e bd d9 42 56 3c
       -0.06293361 -0.042326782 -0.06979229 0.013077461
000320 b2 ad fe bc 61 b0 e4 3c 74 1d 97 3d d1 bc f9 bc
       -0.031088684 0.027916135 0.073786646 -0.030485542
000330 5e 66 30 bd 6f f7 a6 bd a4 09 0b 3a 92 db 07 bc
       -0.043066375 -0.08152663 0.0005303866 -0.008292096
000340 7f 4c 9e 3b 32 bd 91 3c c5 0b e9 bc 7c c3 00 bd
       0.0048308964 0.01779041 -0.028447995 -0.03143643
000350 72 bb 38 3d 64 9b 9f 3c 87 ee fa ba 9f 70 0c bd
       0.045100637 0.019483276 -0.0019144573 -0.03428709
000360 0d c9 c3 3c 95 21 81 bd 70 3a 7a 3d c9 77 29 3d
       0.02389958 -0.063052334 0.061090887 0.041374
000370 7f 11 aa bd c1 c2 3f bd d1 25 5b 3d 87 a7 1a 3c
       -0.08304118 -0.04681659 0.05350286 0.009439356
000380 99 d3 4f 3d c4 83 02 bd fe 7d 8c bd 8d 27 71 3d
       0.050738905 -0.031863943 -0.068599686 0.05887561
000390 86 ac b4 bd d5 50 7c 3c c2 fe 65 bd 92 79 81 bd
       -0.08821969 0.015400131 -0.05615116 -0.06322016
0003a0 bf 98 78 3d a3 44 06 3d 90 aa 73 3d aa f2 58 3d
       0.060692545 0.0327803 0.059488833 0.052965797
0003b0 27 a9 8c 3d 79 43 ea 3c ce 12 00 bd 6a c2 9d bd
       0.06868201 0.028596627 -0.031267934 -0.07703097
0003c0 16 29 1c bd 07 0e dc 3c 78 50 df 3b 19 fa c8 ba
       -0.03812512 0.026862158 0.0068150125 -0.0015333324
0003d0 fc dd 5b bd 22 57 8a 3d 29 0d 7e bd 4e 51 87 3d
       -0.053678498 0.067549005 -0.06202427 0.066073045
0003e0 e2 af 78 3d 8a cb fc bc 31 f4 54 bc 0b 9d f0 bc
       0.06071461 -0.030858774 -0.012997673 -0.029371759
0003f0 85 20 6b 3d 9f 44 44 bd 33 a5 39 bd 82 7f 09 bd
       0.05740406 -0.047917005 -0.045323562 -0.033568867

net.6.bias f4 [64]
000000 3b 52 97 bd 63 a7 14 bd d6 08 12 3d 37 97 5d 3d
       -0.07388731 -0.036292445 0.035652958 0.054099288
000010 ad da bf bd dc 25 b5 bd 7d d6 61 bd f0 cb df 3c
       -0.09367881 -0.08845112 -0.055136193 0.027318925
000020 22 66 0a 3a 2c a8 47 bd 79 29 9d bd 85 88 e3 3d
       0.0005279501 -0.048744366 -0.07673926 0.111100234
000030 63 72 69 bd 5f e7 84 bd e2 70 d2 3b 86 ac 55 bd
       -0.056993853 -0.06489443 0.006422148 -0.052166484
000040 60 df 72 3c dd da 74 bd 40 ef be bd 2e ed 83 bd
       0.014823765 -0.059779037 -0.09322977 -0.06441723
000050 26 53 55 bd 53 e7 ab 3d 70 99 a1 3d bc 65 80 bc
       -0.05208125 0.08393731 0.07890594 -0.01567351
000060 1c 14 cd bc ce c6 90 3a dc 68 3b ba 3e 25 52 bc
       -0.025034003 0.0011045577 -0.0007149109 -0.012826262
000070 ac a2 1b bc 1a ba 91 3c 28 15 8b bd 57 b1 45 bd
       -0.009499233 0.017788935 -0.067911446 -0.048264828
000080 46 dc a7 bd 0b 95 d4 3c f0 d7 d4 3d c6 05 16 bd
       -0.08196311 0.025949975 0.10392749 -0.0366266
000090 71 b4 9c 3c de 88 b0 bd 35 0e d6 bc e4 62 cb 3d
       0.01912901 -0.08619855 -0.026129821 0.09930971
0000a0 10 f3 d0 3c a0 9a 02 bd 04 c0 2d 3d 01 d8 ef bc
       0.025506526 -0.031885743 0.04241945 -0.029277803
0000b0 c0 b9 d6 3c 3b 10 2e bd e7 ef e5 3d b7 16 ce 3c
       0.02621162 -0.042495947 0.11227398 0.025157316
0000c0 24 51 5d bd 1c ae 76 bd db ae 4d bd 96 ca 9e bc
       -0.05403246 -0.060224637 -0.050215583 -0.01938371
0000d0 38 6a 5d 3d e4 ee f7 bc 56 37 22 3d 56 f0 a6 bc
       0.054056376 -0.03026528 0.039603554 -0.020378273
0000e0 09 a2 3e bd 85 2d ae bd a6 46 59 bd 42 1c fe bb
       -0.046541248 -0.08504776 -0.05304589 -0.0077548334
0000f0 ba 1f e0 bd b8 bc d8 bc 1f 79 68 bd be 69 18 3d
       -0.10943551 -0.026457176 -0.056756135 0.03721022

net.8.weight f4 [3, 64]
000000 24 62 3c 3d 7f 73 93 3c 68 80 97 bd a4 84 3e 3b
       0.04599203 0.017999409 -0.073975384 0.002907076
000010 de 58 94 3d cc fb 6e bd ce 8f a9 bc 47 24 36 bd
       0.072435126 -0.0583456 -0.020698454 -0.04446819
000020 4a 7a bf bd dd 6d e5 bd 41 b3 c1 3d 48 c7 02 be
       -0.09349497 -0.112025954 0.09458018 -0.12771332
000030 10 fb ee 3d c2 75 34 3d c6 c5 cd bd 34 56 f3 3d
       0.1166898 0.044057615 -0.10047488 0.11881676
000040 33 31 df bd 4b 88 85 bd 36 3b bc bd 7e fb 55 3d
       -0.10898056 -0.065201364 -0.09190981 0.052241795
000050 28 1e ac bc 74 bf d0 3d 89 9c 61 3d f1 7f 2c 3b
       -0.021010473 0.10192767 0.055080924 0.0026321376
000060 1e 02 77 3d 74 0e 32 3c 19 4f 33 bd 0a 85 5d bd
       0.060304753 0.010867704 -0.043776605 -0.054081954
000070 94 c7 9a 3d f1 cd 0c 3d 54 f7 e1 bd 00 56 b9 bd
       0.07557598 0.03437609 -0.11033502 -0.09049606
000080 0d 6b 6e bd a0 b3 aa bd 1e b3 3c bd 4a 6d cb 3d
       -0.05820756 -0.08335042 -0.046069257 0.099329546
000090 ac 12 71 3c 8e b2 db 3d 9c 20 ab 3d ca e9 ea bc
       0.014713924 0.10727416 0.08355829 -0.028675932
0000a0 49 38 91 bd e1 1b b0 3d 55 fd 9e bd 94 db c1 3d
       -0.07090814 0.085990675 -0.07763163 0.09465709
0000b0 ad 35 92 3d cf f5 ce 3d e9 e4 7c bd 6b 0f 97 bd
       0.07139144 0.10105478 -0.061741743 -0.073759876
0000c0 f5 7b e9 bd d6 cf e4 bb 0e ca 71 3d a5 5d ec 3d
       -0.11400596 -0.006982784 0.059030585 0.11541299
0000d0 a5 f6 0d bb 4d 44 a5 bd c2 c0 dd 3d b8 d0 b4 bd
       -0.0021661904 -0.08069668 0.10827781 -0.088288724
0000e0 94 f2 ae bd c5 de ac 3d 24 5c de b9 dd de a1 3d
       -0.08542362 0.084409274 -0.0004241179 0.07903836
0000f0 14 3c 58 3d 44 f1 df 3d 2c 13 24 3d 84 06 33 bd
       0.05279167 0.1093469 0.040057346 -0.043707386
000100 53 ef 5b bd cc 7b f1 bd bb 18 99 3d b2 c6 dd bd
       -0.053695034 -0.117911905 0.0747542 -0.10828914
000110 04 e3 43 bd 18 87 b2 3d 3f 7a ad ba a3 4d c8 bd
       -0.04782392 0.08717173 -0.0013235285 -0.09780433
000120 41 f7 cc bd 94 98 0e bd 86 8f f5 3d c3 56 ea bd
       -0.100080974 -0.03481348 0.119902655 -0.1144233
000130 5c 90 81 3d 20 5a 73 bc 34 e8 aa 3c 38 22 a6 3c
       0.063263625 -0.01485303 0.020862676 0.020279989
000140 46 9f 34 3b ee 31 a1 3d e3 0a a7 bc a9 0b 18 3c
       0.0027560755 0.078708515 -0.020390933 0.009280124
000150 90 f3 7d 3d 84 13 1a 3d ed b1 b7 bd c9 cf f4 bc
       0.061999857 0.037616268 -0.089694835 -0.029884236
000160 0a d1 e0 3d f2 31 4e 3c d1 17 54 3d d1 2e 02 be
       0.10977371 0.01258515 0.051780526 -0.12713172
000170 9d 87 8b 3d 1e 32 e8 3d f0 8f 0f bd 08 41 6a 3d
       0.068129756 0.11337684 -0.03504938 0.057190925
000180 bc 4c 25 3d 53 98 37 3c fb a5 96 bd 80 f4 60 3d
       0.040356383 0.0112057505 -0.07355877 0.054920673
000190 a6 01 b7 3d 30 27 87 bc b3 f3 87 bd 8e 4b ee bd
       0.08935861 -0.016498178 -0.06638279 -0.11635505
0001a0 72 94 ec 3d fc 9a 8e bd 04 13 bc bd 9b a1 aa bc
       0.11551751 -0.06963155 -0.091833144 -0.020829013
0001b0 f9 64 3c 3d dc 3f a9 bd 10 94 88 ba 14 f8 2c 3c
       0.045994733 -0.08264133 -0.0010420103 0.010557193
0001c0 a4 65 6b 3d ad 7d eb 3d 58 95 10 bd 0c 5e 39 bd
       0.05746998 0.1149858 -0.035298675 -0.045255706
0001d0 32 66 93 3c 45 0e e8 bd 52 69 f5 bd 3b c2 a3 bd
       0.017993066 -0.11330847 -0.11982979 -0.07996031
0001e0 a0 73 2b bd 50 6c 26 bd 0d ed 55 3e 77 16 b0 3d
       -0.041858315 -0.04063064 0.20891209 0.08598035
0001f0 f8 c2 8c bc 50 a9 b7 3d 30 4f 2e 3c fe 02 82 bd
       -0.017182812 0.08967841 0.010638997 -0.06348227
000200 17 25 85 3c c8 48 e9 3d b7 c7 0e bd 7a 42 61 39
       0.016253037 0.11390835 -0.03485843 0.00021482437
000210 1e 9a 34 bb fa b6 9f bd 2f 52 30 3d e5 7d 64 bc
       -0.0027557681 -0.07798572 0.043047126 -0.013946031
000220 b6 e5 e4 3d 61 0a 65 bd d9 8d 92 bd b1 d6 b5 3d
       0.111766264 -0.0559181 -0.071559615 0.0887884
000230 0b d5 1e bd 47 8d 2b 3c a4 fd 5f 3d ab 7a c1 3d
       -0.038777392 0.010470695 0.05468525 0.09447225
000240 cd 81 3e 3d 80 40 f6 3d 93 90 cc 3c b0 7d ea 3c
       0.046510506 0.12024021 0.024971282 0.028624386
000250 18 26 67 3d 70 6b 44 bd 01 04 98 3d c1 69 8b bd
       0.056432813 -0.047954023 0.07422639 -0.0680728
000260 71 85 1a 3d b3 51 0b ba da a4 3c 3c d6 61 30 3d
       0.037724916 -0.00053146033 0.011513913 0.043062054
000270 4a 96 8c bd f9 1b f4 bc 22 e9 9d 3d 78 0f a1 bd
       -0.06864603 -0.029798495 0.07710482 -0.078642786
000280 d8 a9 cf 3c ad b3 21 bc da a9 8c 3d 30 dd 76 3d
       0.025349542 -0.009869498 0.06868334 0.060269535
000290 17 8c d3 bd 12 f9 f1 bd 78 bf d6 bd 3c 83 91 bd
       -0.103294544 -0.118150845 -0.104857385 -0.07105109
0002a0 e7 c0 60 3d bd 1f ae 3d 00 62 8e 39 3d 3b 38 bd
       0.054871466 0.08502147 0.00027157366 -0.04497837
0002b0 9d 09 a2 bc 16 43 67 3d 37 87 d4 bc 9f bb 72 bd
       -0.019779975 0.056460463 -0.025943382 -0.05926096
0002c0 ca 63 c7 bc fc 6d ab 3d 88 ec ba 3d 11 b4 f5 bd
       -0.024339575 0.08370587 0.09127146 -0.119972356
0002d0 46 8d 96 bd f3 66 ab bb 7e 16 8d bd c2 c9 08 be
       -0.073511645 -0.0052307784 -0.06889056 -0.13358214
0002e0 83 72 95 bd d0 b6 e6 3c f5 e4 b2 bd 93 d8 fb 3c
       -0.07297232 0.028163344 -0.08735076 0.03074292
0002f0 a2 4a 96 3c d0 dd 19 3c ca 03 50 3d fd 9a cb bd
       0.018346135 0.009391263 0.050784864 -0.09941671

net.8.bias f4 [3]
000000 77 94 38 3d e1 3e 71 bd f1 ea 9f bd
       0.045063462 -0.058897857 -0.078084834
