old_models/models_random_map/1_model.pkl (torch, 185997 bytes, 8 tensors)

net.0.weight f4 [256, 16]
00000000: f9c0 c6bd 8838 e6bd 44aa 473e 500d 3d3d
00000010: d681 07be 49d0 233e f361 bd3d ef7c 5fbe
00000020: ee34 4fbe 3f96 563e 5348 f5bd 1184 5fbe
00000030: aba2 3d3e 8dce 2bbe 8122 23bc 483f 1e3e
00000040: e862 113d a0d3 713c 5c00 963d 9800 cfbd
00000050: 5caa 80bd bc48 08be 8851 5d3e 4a42 3dbe
00000060: f03a 32bd 14f4 b3bd 4013 15bd 9aa4 23be
00000070: 00a6 ea3b d6fa 62be a0f1 d83d c062 553e
00000080: 9eef 08be c39e 1b3e 357e 39bd ec9c ecbd
00000090: 4b41 563d 95cb a8bd 6d7e 013e 1d86 5cbe
000000a0: 506f 193c 770c dc3d ab60 49be 0797 4c3e
000000b0: 1712 16be 7a18 933c 4578 6a3d 0379 32be
000000c0: 4ce1 d6bd cfad 48be 6456 063d 9f03 2a3d
000000d0: 3cb6 453d 07bc 32bd 3ae7 c2bc 2b51 ee3d
000000e0: 578e 43be eb21 683e e9a2 63be 238e 3ebe
000000f0: 9751 853d 0f70 583e 1764 46bd 7cf1 7c3e
00000100: b07b 663d f056 32be c676 7e3e 40de b93b
00000110: 94ef 503e 8cf3 6dbe 4ce9 6dbe 4cbc e43d
00000120: 101a f6bc 68d4 47bd 2025 dbbd 3ae1 55be
00000130: e8c2 1d3d bc11 25be 80f6 abbd 384e 18be
00000140: d829 6b3e 0027 d23d 7c2a 54be e42a 8abd
00000150: 2c0c 3abe b043 d8bc 58bd 31be 0cc9 fabd
00000160: d4eb 3bbe a051 1ebe 6853 61be d8de 983d
00000170: d4d9 26be c0dd a93b 805d a1bb 5c1f f63d
00000180: fc51 c03d 4dcc 2a3e 848e 943d 9e6d 4cbe
00000190: 7a0a 973d 23b0 bc3c fad2 143e d0c3 233e
000001a0: 8e9e cfbd 1000 7a3d eaeb 113e db54 623d
000001b0: 811d 05be 5277 0bbe eb43 3c3d 2d40 86bc
000001c0: b61d 553e 928e 9abd f851 123e 28e3 733e
000001d0: 17ce 623e 9f2c 5e3e 2ae2 f3bc e570 f2bd
000001e0: 3b35 dabd 5707 b1bd 2359 753e c0f3 47ba
000001f0: 3726 313e 5cc0 d2bd 135d 7b3d b07e 45be
00000200: bd07 ea3d c147 673e 9885 e73d 60c1 3cbe
00000210: 235a 733d d7ca 28bc b332 473e c4a6 a33b
00000220: bd37 bdbd 1cc6 e2bc 659e 5abe 8532 893d
00000230: c9fa c8bd 530d 29be 44e7 eb3c 2586 1bbe
00000240: fa58 f43d a227 5abd fe77 c5bd f2c6 6c3e
00000250: 9e6a 38be 8e9a 70be b60d 573e 822d a5bd
00000260: a898 d1bc 72c2 e23d cbfe b6bc 6449 20be
00000270: a34c 0f3e d6ba 5b3e cc65 343e 32b8 7fbe
00000280: 7875 493e 6092 6cbe b214 463e 90b7 e8bd
00000290: f4e9 153e b05b bbbd 8072 ffbb 443d 3ebe
000002a0: 6483 3abe ca4b 57be 008b be3c f2b3 383e
000002b0: c454 033e c889 32bd 480b 76bd 54c3 a6bd
000002c0: 64d2 0dbe ac01 afbd 685b 64be 8c6f 00be
000002d0: d019 f53d b87e c43d 96de 79be 2088 3e3c
000002e0: f4ab c7bd 2610 093e 9ae4 26be b608 273e
000002f0: c049 bb3d e8b4 023d a012 a8bd fe0f 55be
00000300: c68d 5d3d 0ef7 2c3e ea87 073e 34f5 68be
00000310: a153 44bd 5f4e 14be 5f71 a23d 751b 6e3e
00000320: a15a 1cbe 730f 2b3e ad2c 703e 92aa 8b3d
00000330: 657d 403e b98b 123e 2c31 13bd 0b15 88bd
00000340: d84e 303e 92ba 00be a05f cbbd 56e1 51be
00000350: 60d0 8b3d be2c 5b3e b0a7 abbc 2822 5b3d
00000360: 68f6 babd 70e4 7b3d 66ae 063e 801e 9c3b
00000370: 927e 1e3e 00b2 52be b46c 54be 2265 09be
00000380: 609c 4c3e 4cae 4e3e ec53 d3bd a016 783d
00000390: 1cc5 e93c 9e3a b6bd e82e 193e ec97 643e
000003a0: a821 c6bd ac18 fabc 1eda 47be bfc5 61bd
000003b0: 9bb6 1cbe 3fc8 a2bd c6d9 44be a228 b13d
000003c0: 6a4e 21be 20d7 363d ac23 c4bd 28b4 7ebd
000003d0: 000f 553d 9c66 3fbe 0016 a83c b0ec 763e
000003e0: 966e 69be e02a 99bd 8040 6ebe d2bc 123e
000003f0: 1c24 f9bd 7c8e 0e3e f890 07bd 5eda 243e
-0.09704775 -0.11241251 0.19498545 0.046155274 -0.13233122 0.15997423 0.09247198 -0.21825002
-0.20235035 0.20955752 -0.119766854 -0.21827723 0.18519084 -0.16778012 -0.009956957 0.15453827
0.035494715 0.014759928 0.07324287 -0.10107535 -0.062824935 -0.13308996 0.21613133 -0.18482319
-0.04351324 -0.087867886 -0.03639531 -0.1598076 0.007160902 -0.22165999 0.10592961 0.20838451
-0.13372657 0.15197282 -0.045286376 -0.11553368 0.052308362 -0.08241955 0.12645884 -0.21535535
0.009364918 0.10744565 -0.19665782 0.19979487 -0.14655338 0.017956007 0.057243604 -0.17428975
-0.10492191 -0.19597553 0.032797232 0.04150736 0.048269495 -0.043636348 -0.023791898 0.11636575
-0.19097267 0.22669189 -0.22230114 -0.18608908 0.06509703 0.21136497 -0.048435297 0.24701494
0.0562703 -0.17415977 0.24849996 0.005672246 0.20403892 -0.23237437 -0.23233527 0.11168727
-0.030041724 -0.04878655 -0.107004404 -0.20886698 0.038515955 -0.16120046 -0.083966255 -0.14873588
0.22965181 0.10261345 -0.20719332 -0.06746462 -0.18168706 -0.026399463 -0.17357385 -0.12245378
-0.1835168 -0.15460825 -0.22004473 0.07464379 -0.16294032 0.0051839054 -0.004924476 0.120177
0.09390637 0.16679497 0.07253745 -0.1996369 0.07375045 0.023033207 0.14533606 0.15992665
-0.10137664 0.061035216 0.1425015 0.055256706 -0.12999536 -0.13619736 0.04596321 -0.016388023
0.20812115 -0.075467244 0.14289081 0.23817122 0.2214893 0.21696709 -0.02977093 -0.11837939
-0.10654684 -0.08643978 0.23959784 -0.0007627569 0.17299734 -0.10290596 0.06136806 -0.19286609
0.11427257 0.22585966 0.11304778 -0.18433142 0.059412133 -0.010302267 0.19452934 0.0049942452
-0.09239147 -0.027682357 -0.21349485 0.06699089 -0.098134585 -0.16508989 0.0287968 -0.15187891
0.119310334 -0.053260453 -0.09642027 0.23122767 -0.18009421 -0.23496458 0.21001324 -0.080653206
-0.025585487 0.11072244 -0.022338292 -0.15652996 0.13994078 0.21457991 0.17616957 -0.24972609
0.19673717 -0.23102713 0.19343832 -0.11363137 0.14640027 -0.091483474 -0.007795632 -0.18578058
-0.18214184 -0.21025005 0.02325964 0.18037394 0.12825304 -0.04358843 -0.060069352 -0.08142725
-0.13849789 -0.08545241 -0.22300494 -0.12542552 0.11967814 0.09594482 -0.24401316 0.011629134
-0.09749594 0.13385066 -0.16298142 0.16311917 0.09144926 0.031910807 -0.082066774 -0.20806882
0.054090284 0.16891119 0.13235441 -0.22749788 -0.047931317 -0.14483021 0.0793178 0.23252662
-0.15268947 0.16705112 0.23454542 0.06819643 0.18797834 0.14311112 -0.035935566 -0.06644639
0.17217577 -0.12571171 -0.099303484 -0.20496115 0.06826854 0.21403787 -0.020953983 0.05349937
-0.091290295 0.06149715 0.13152465 0.004764378 0.1547797 -0.20575714 -0.20744592 -0.13417485
0.19981527 0.20183676 -0.10318741 0.060568452 0.028536372 -0.08897899 0.149593 0.22323579
-0.09674388 -0.030529343 -0.19516799 -0.055120226 -0.15304033 -0.0794835 -0.19223699 0.08650328
-0.15752569 0.044638753 -0.09577116 -0.06218353 0.05201626 -0.18691486 0.020518303 0.24113727
-0.22796091 -0.07478881 -0.23266792 0.14329842 -0.121650904 0.13921541 -0.033097237 0.16098925

net.0.bias f4 [256]
00000000: 5171 6a3e c0e9 edbd c9a4 6f3e 8725 493e
00000010: 94bd 613e 0062 7e3e d049 cd3d 796e 743e
00000020: 617c 753e 824f ebbd 4cdd 0f3e 3c7e b93d
00000030: ff67 14be 70f3 0fbe cb06 88bc a0fa 33bc
00000040: a0f7 a23c 3cdf 1c3e 80d7 c13c a0c7 723e
00000050: 3d1f 51bd d0e3 a93c f86c 213e 48c1 f93d
00000060: a883 953c 891d 533b cfba 2cbe aa1e 873d
00000070: c422 b1bc eaf4 69be e931 e8bd 6e85 77bd
00000080: 7593 713e 30f5 66bb 0155 183e eb7c 53be
00000090: aef8 563e 80d1 b33b ada6 2d3e 3d18 543e
000000a0: e121 c73d aaed 233e 8db8 023e 543a 35bb
000000b0: c06c 1fbe e8a0 29be a513 863d 441b a9bd
000000c0: d487 40be f5b5 46be e860 cbba 142c 033e
000000d0: 82d7 1ebc f8d0 2dbe 00e0 663c 1851 cabd
000000e0: 00db 393d a01c 34be d490 ebbd 1894 4abd
000000f0: 1fdd 34be b04c 553d bba4 0c3e 4024 863b
00000100: 17d7 f4bc 2a86 723e 3c04 35bd 1470 8d3d
00000110: 12bc 3cbe 47a2 ccbd f08e 4c3d 4e23 023d
00000120: 02a9 453c a971 453e e281 0fbe 16bd 6f3e
00000130: f4f4 54be 8a84 0ebd 609c afbd b809 03bd
00000140: 30a9 193d 7653 013e 985a 55be 3a3b 57bd
00000150: 5e17 593d 04b7 d4bd 484d 5e3e d00b f63d
00000160: 75be 7cbe 4833 d5bd ae5c 243e 9eaf 29be
00000170: 2ca5 e23d 105d 00be e498 cebd 060f 72be
00000180: e304 29bc ecee 73be 7b4e 2bbc cc47 073e
00000190: 845d 1b3e ba69 64bd c3f7 133e ad45 063e
000001a0: ee18 42be 12be 00be ce78 68be 213a fd3d
000001b0: ba14 4cbe 4f3e 79be 1792 503e 201b d4bd
000001c0: 388a 473e a11a b73d 959e b93c d697 7a3e
000001d0: 0a35 613e 0166 413e c4ac dd3d c4ef 163e
000001e0: a1b0 1c3e 1ec4 3d3d f055 7a3d 749b af3d
000001f0: b093 11be f05a a7bc 09d0 423e 3853 81bd
00000200: d4c2 c13d 078c 50be cdfd 2f3e 644d e0bd
00000210: aa02 f23c 1fa4 ea3d c88e 5fbd b890 4fbe
00000220: 76e3 483e 40ac 753c 0f4d 24be daf8 223e
00000230: 7092 a6bc dbbd 4d3e 71b2 61bd 1e93 2cbe
00000240: a8d5 4f3d b051 25bd 55b7 f43d 604d 8abc
00000250: 3969 2f3d cad1 7e3e 8403 0f3e 9d74 d3bd
00000260: c249 18be 508b 633e f48b 003e cea5 613d
00000270: e6fe 7bbe 3f27 f33b 0189 5b3e 37c6 ff3d
00000280: c64c 443e 9001 2fbe fd46 a43d 49fa f43d
00000290: 9eb8 89bd c0a3 64bd 404a b43c 18fb 39be
000002a0: c88f 7dbe 09dd 533e 4c5c 7d3e c0b7 3a3d
000002b0: a231 eb3d 1469 17be 57ed 86bc fca7 213e
000002c0: ecd1 43be 5961 683e 3c53 4f3e 32d8 603e
000002d0: 483b 08bd dd17 643c b304 64be 5069 483e
000002e0: 45bc 2cbd 40c1 21bc d0ee 113e ac32 fbbd
000002f0: 9773 3dbe f011 103d 9c0d c7bd f898 413d
00000300: 0030 a5b9 6586 6b3d 4cf0 22be 3eaa 15be
00000310: 165d 3e3e 80e1 d2bd 9909 103e 4a8f 26be
00000320: d877 8c3d f6bd 03be c4cd 0d3e beb9 1cbe
00000330: 0f20 693d 1766 f43d 404a 40bc 6663 793e
00000340: 2377 753e 409f 36be 780e 30be 5846 3cbd
00000350: 0b78 8abd ceec 04be 907e fd3c 5c32 22ba
00000360: f247 a53a ee2f c33c 3453 aa3d 6712 883d
00000370: 7d15 7abe 5cc9 0fbe 1021 30bd 5adc 94bc
00000380: 8077 8cbc f24b 16bc 9b1a 803e 95a0 d53c
00000390: 02dd 64be e370 4b3e 74e7 763c b009 c03d
000003a0: f0d3 fabc 021a 4bbe 2e6c 063c d4d4 403e
000003b0: 55f3 adbd d08b 98bc ba9b ef3d 98b8 ccbd
000003c0: f02b 883d 4035 263c 74eb b4bd 2adf 7ebe
000003d0: a07a 07b9 2524 643e 359b 103e dc72 a2bd
000003e0: d23c d03d b16b 883b 604c 053e 0002 d8ba
000003f0: 9e33 74be 30aa 56be 7035 ecbd 88c7 f4bd
0.2289479 -0.1161685 0.23402704 0.19643222 0.22044975 0.24842072 0.10023844 0.23870267
0.23973228 -0.11489774 0.14049262 0.090572804 -0.14492796 -0.14057708 -0.016604802 -0.010985047
0.019893467 0.15319532 0.023662329 0.23708963 -0.05105518 0.020738512 0.15764225 0.121950686
0.018251255 0.003221365 -0.16868137 0.065976456 -0.021623023 -0.22847334 -0.113376446 -0.060429983
0.23591407 -0.0035241358 0.14876176 -0.20653121 0.20993301 0.005487621 0.16958113 0.20712371
0.09723259 0.1600863 0.12765713 -0.0027653174 -0.15568829 -0.16565287 0.06546716 -0.08257154
-0.18801814 -0.19405349 -0.0015516551 0.12809783 -0.009694936 -0.16974247 0.014091492 -0.09878749
0.04537487 -0.17589045 -0.11502233 -0.04945764 -0.17662476 0.052075088 0.13734715 0.004093677
-0.02988772 0.23683992 -0.04419349 0.06906143 -0.18431118 -0.099918894 0.049941003 0.03177195
0.01206422 0.19281639 -0.1401439 0.23411974 -0.20796567 -0.034794368 -0.08574748 -0.03199169
0.037514865 0.12629494 -0.2083534 -0.052546717 0.0530008 -0.1038647 0.21709168 0.12013972
-0.24682029 -0.10410172 0.1605098 -0.16570899 0.1106666 -0.125355 -0.10087755 -0.23638543
-0.0103161065 -0.2382161 -0.010455723 0.13210982 0.15172392 -0.05576489 0.14449982 0.13112517
-0.18954822 -0.12572506 -0.22702333 0.12364603 -0.19929782 -0.24340175 0.20368229 -0.10356736
0.1948632 0.08940626 0.022658626 0.24471983 0.21992889 0.18886568 0.10823968 0.14739901
0.15301754 0.04632961 0.061117113 0.08574572 -0.14216495 -0.020429105 0.19024672 -0.06314701
0.09460989 -0.20365916 0.17186661 -0.10952261 0.029542286 0.11457085 -0.054579526 -0.2027005
0.1961802 0.014994681 -0.1604502 0.15915242 -0.020333499 0.20091955 -0.055101816 -0.16852996
0.050740868 -0.040361106 0.1194903 -0.016882598 0.042824958 0.24884716 0.13966185 -0.103249766
-0.14871886 0.22221112 0.12553388 0.055089764 -0.24608955 0.00742045 0.21438982 0.12488978
0.19169912 -0.1709044 0.080213524 0.119618006 -0.06724666 -0.055820227 0.022008061 -0.18162191
-0.2476188 0.20689787 0.2474224 0.045585394 0.11484076 -0.14786178 -0.016470594 0.15786737
-0.19123048 0.22693385 0.20246595 0.21957472 -0.03325966 0.013921705 -0.22267418 0.19571424
-0.042171735 -0.009872735 0.14251256 -0.12265524 -0.18501125 0.035173357 -0.09719393 0.047265023
-0.00031507015 0.057501215 -0.15911978 -0.14615723 0.18590197 -0.10296917 0.14066161 -0.16265598
0.06858796 -0.12865433 0.13848025 -0.1530523 0.05691534 0.119335346 -0.011736453 0.24354324
0.23971228 -0.17834187 -0.1719302 -0.045965523 -0.06761178 -0.12980959 0.030944139 -0.00061873137
0.0012609942 0.023826566 0.08316651 0.06644135 -0.2442226 -0.14041656 -0.04300028 -0.018171478
-0.017146826 -0.00917338 0.25020298 0.026077548 -0.22349933 0.19867282 0.015069831 0.09376848
-0.030618638 -0.1983414 0.008204503 0.18831187 -0.084936775 -0.018621355 0.11699624 -0.09996146
0.066490054 0.010144532 -0.088339716 -0.24889818 -0.00012920285 0.22279413 0.14121707 -0.07932064
0.101678506 0.0041632284 0.13017416 -0.0016480088 -0.23847815 -0.20963359 -0.1153363 -0.1195212

net.3.weight f4 [128, 256]
00000000: dca7 823c ae19 103d 00fb 46bd 4ea0 3a3d
00000010: 8436 92bc d4dc 413d 20a5 603d c8c1 253c
00000020: 0008 9c3c b823 09bc 005d 9d39 e06b 14bc
00000030: d468 c83c 20df 94bc fe50 1c3d 6a5d 733d
00000040: 9e46 2fbd 900f b2bc c0c4 b13b 9cab 6bbd
00000050: 2a29 42bd c423 a63c 00f7 c6bc a807 0c3c
00000060: f036 853c dc70 9fbc 1889 293d 78e0 4e3c
00000070: 50aa 8dbc ccac 943c 9060 ed3c 7816 213c
00000080: 9a77 2abd 2863 25bc 7028 aabb 2a38 12bd
00000090: 5217 433d fee3 3cbd 34d6 62bd 0a41 39bd
000000a0: c086 033b a482 30bd 80b1 243a 020f 123d
000000b0: f2c8 7b3d 1440 c23c 3ab6 77bd 9832 1cbd
000000c0: 3e5e 1dbd 7030 5c3c 2e47 49bd fc89 77bd
000000d0: 8863 30bc 104e 963c 18f6 743d 60cf f13c
000000e0: 9833 05bc 7a0a 11bd c0b0 f13c 70c2 333c
000000f0: 10b3 c0bc d0a3 a0bb b0b9 96bb 940d d5bc
00000100: f875 c7bc 22a4 62bd 7aa0 4e3d fc3c dd3c
00000110: bec4 273d 004b f33b 400e 7ebd 60ed 83bb
00000120: 7a23 36bd f0b3 02bc 307f c0bc 4032 16bd
00000130: e8c6 0abc 304d 08bc 58f4 21bc 5e5f 0d3d
00000140: 2802 e9bc e24d 28bd a216 18bd 1073 82bc
00000150: a8d1 82bc a0be 02bb 68e7 e43c f0f5 7ebc
00000160: 5466 1a3d a055 41bc 8473 3abd c056 b3bc
00000170: 20a7 b93c 90c9 053c c046 353c 005d 00bc
00000180: 48e3 3b3c c0fe 173b 4c03 b83c f0f1 803c
00000190: 40e3 063d c0a8 1fbb 9873 00bc 14be 48bd
000001a0: 0c39 39bd 7003 83bb 98bb 643c 86ab 7f3d
000001b0: 2462 f9bc 6c98 22bd ce9e 56bd 0002 e1bb
000001c0: 9452 43bd 7c13 9fbc 80fb 873a c055 993b
000001d0: 406f ee3b 7ebf 403d 48bb 23bd 8037 e23a
000001e0: 02c0 29bd 682d 1cbd a0c6 a8bb 685a 14bc
000001f0: f814 f53c 2092 39bc 6072 543d 1483 373d
00000200: 08e7 533c feb8 003d 160a 77bd 60cb 41bd
00000210: 789b 87bc 1c71 11bd ea54 123d 58a2 4bbc
00000220: 1e81 3cbd 1047 8abb 1876 673d b087 753c
00000230: 3254 1cbd b8cb d3bc 7478 11bd 6ecc 303d
00000240: 803f c13a ca66 4d3d cc2a f23c c42a 1cbd
00000250: 0041 87bc 3ca7 eebc 987a f83c a0a4 1f3d
00000260: e0dd db3b b027 2fbc 6835 7fbd c0c8 703d
00000270: a4ee 1fbd b802 40bc 7c5f c53c 50c2 51bd
00000280: 40c4 41bc 92d7 023d 5a72 193d 60c0 56bb
00000290: e002 c1bc e89a cebc 74c9 2b3d d879 3c3d
000002a0: 246d 4ebd 5491 823c 1027 083c 4041 343c
000002b0: c0d7 7c3d f014 403d 4440 fc3c 22d5 2abd
000002c0: f091 b03b d4f4 653d 0892 86bc 7afe 6e3d
000002d0: b2b6 633d d089 77bd 481f a6bc 3228 513d
000002e0: c04d 143d 6842 a9bc ca79 0d3d 24f4 673d
000002f0: be2c 0e3d c049 bcba 38f4 5cbc eec9 643d
00000300: a09d 49bb e48d 8dbc d035 6abc 92db 7a3d
00000310: e0c3 af3b 6c46 453d 10bb 2e3d e03f 0d3d
00000320: 363e 1fbd dc11 8a3c 047d 48bd 805c 833a
00000330: 90e2 6fbc 80be 4c3b f061 813b 10c4 303d
00000340: 1488 7ebd 6077 953c daf1 6ebd 789c 19bc
00000350: d8df fc3c 242f de3c 308f 783d 10e3 ee3b
00000360: 2020 f63c ec1d 413d 4a09 56bd 80c4 fabc
00000370: b2a2 523d a031 0dbb 1083 e03c 0074 baba
00000380: 3c24 03bd 46bc 45bd 42e7 67bd daf5 5a3d
00000390: a649 7cbd 9253 7cbd eccb c53c f09d 07bc
000003a0: 1cbd 233d 6c1a 80bc 6813 f93c b056 68bd
000003b0: 28d5 333c 4031 afba e2af 5b3d 50a4 dabc
000003c0: 16f7 16bd c889 123c 982b 65bc a847 ad3c
000003d0: 4a53 57bd 5ced a0bc c6e3 403d e814 5f3d
000003e0: c4e9 e73c 742f 0f3d 5c62 0dbd 24b4 a0bc
000003f0: 303d 96bc e0db 573b 4cca 513d aa7d 42bd
0.015949182 0.03518074 -0.048579216 0.045563035 -0.01784826 0.04732974 0.054844975 0.010117002
0.019046783 -0.008370332 0.00030014664 -0.0090589225 0.024464048 -0.0181728 0.038163178 0.05941526
-0.042791955 -0.021735936 0.0054250658 -0.057536706 -0.04740254 0.020280726 -0.0242877 0.008546747
0.016261548 -0.019462995 0.04139051 0.01262676 -0.017293125 0.018148802 0.028976709 0.009832017
-0.041617967 -0.0100944415 -0.005192809 -0.035698093 0.04762966 -0.046115868 -0.05538006 -0.04522804
0.002006933 -0.04309334 0.0006282553 0.035658844 0.061470933 0.023712195 -0.06047652 -0.038134187
-0.038419954 0.013439283 -0.049140148 -0.060434327 -0.010765918 0.01834777 0.059805006 0.02951783
-0.008129977 -0.03541038 0.029503226 0.0109716505 -0.023522884 -0.0049023405 -0.0045997724 -0.026007451
-0.024348244 -0.05533231 0.05044601 0.027006619 0.040959112 0.007424712 -0.06202531 -0.0040261
-0.044467427 -0.007977471 -0.023498148 -0.036669016 -0.0084702745 -0.008319184 -0.009884916 0.034514777
-0.028443411 -0.0410899 -0.03713096 -0.015924007 -0.015969113 -0.0019950047 0.027942374 -0.015561566
0.037695244 -0.0118002 -0.04552032 -0.021891952 0.0226627 0.008165732 0.011064231 -0.007834673
0.011467762 0.0023192614 0.02246251 0.015740365 0.032931566 -0.0024362057 -0.00784006 -0.049009398
-0.04522042 -0.0039982125 0.013960741 0.062419437 -0.030442305 -0.039696142 -0.05239754 -0.0068666935
-0.047686175 -0.01941847 0.0010374635 0.0046794116 0.0072764456 0.04705762 -0.039973527 0.0017258972
-0.04144288 -0.03812924 -0.005150631 -0.009054758 0.029917225 -0.011326343 0.05186689 0.04480274
0.0129335 0.031426422 -0.060312353 -0.047313094 -0.016553625 -0.03550826 0.03572551 -0.0124288425
-0.046021573 -0.004219897 0.056509107 0.014985964 -0.038166232 -0.025853977 -0.035515264 0.04316371
0.0014743656 0.050146855 0.029561423 -0.038126722 -0.016510487 -0.029132478 0.030331895 0.038975358
0.006709799 -0.010690615 -0.06230679 0.0587852 -0.039045945 -0.011719398 0.024093382 -0.0512107
-0.011826575 0.031943865 0.03746257 -0.0032768473 -0.023560941 -0.02522035 0.041940168 0.046014637
-0.050397053 0.015938438 0.0083100945 0.011001885 0.061729193 0.046894968 0.030792363 -0.041707166
0.005388491 0.05614169 -0.016427055 0.058348157 0.055594154 -0.060434163 -0.020278588 0.051063724
0.03620696 -0.020661548 0.034539975 0.056629315 0.03471064 -0.0014365241 -0.013485961 0.055856638
-0.0030764118 -0.017279573 -0.014295056 0.061244555 0.0053639263 0.048162863 0.042658865 0.034484744
-0.03887769 0.01685422 -0.04894735 0.0010022074 -0.014641419 0.0031241477 0.0039484426 0.04315573
-0.062141493 0.018245399 -0.058336116 -0.009375684 0.030868456 0.027122088 0.06068343 0.0072902516
0.030044615 0.047147676 -0.052254952 -0.030611277 0.05142469 -0.0021544471 0.027406245 -0.0014225245
-0.032016978 -0.048275255 -0.05661703 0.05345712 -0.061593674 -0.061603136 0.02414509 -0.008277401
0.03997527 -0.015637599 0.030404761 -0.056723297 0.010976113 -0.0013366118 0.05363453 -0.026689678
-0.036856733 0.008943982 -0.013987444 0.021152332 -0.052569665 -0.019644432 0.04709222 0.054463297
0.02830971 0.034957364 -0.03451763 -0.019617148 -0.018339723 0.0032937452 0.051218316 -0.047483124

net.3.bias f4 [128]
00000000: 403c 7d3b 6213 35bd 303f e23c 00f3 77bd
00000010: 72a0 cabc c637 2cbd f4c4 5c3d 94c7 253d
00000020: 5e29 27bc 1b7a a0bb 03fc 1f3d 9bcf 0bbd
00000030: 5221 2dbd b408 3e3d 517d f03c 9c71 d9bc
00000040: 7a65 22bd 1729 703d 54ab 31bd 4061 6ebc
00000050: 003a b3b9 3a7c 663d 64b3 973b b641 83bd
00000060: 6d17 133d 9085 513a f30e 27bd 2b81 343d
00000070: 606e 51bd bdf6 383d 1f1f 3bbc c2ef 7dbd
00000080: eb7c a0bc 4c80 0fbd a80e 123d 0d1f 2ebd
00000090: 0e3f 26bd ea75 2ebd a127 f13c ce6b 0ebd
000000a0: 4212 0bbd 3b77 6fbd ea48 3cbd 9b46 553d
000000b0: 0f4f a5bc d7f6 16bd 780a d2bc 7260 4ebd
000000c0: e23d 913b 31a8 323d a778 cdbb 400a 3cbc
000000d0: bfbd 523d 20e0 aebc 5d95 803d 8caf 14bc
000000e0: e87f e73c 80f4 91bb af43 303c 8c6e f2bc
000000f0: 0661 093d 6cc1 5b3d c97d cb3c 48e3 693d
00000100: f1c5 e33c 56c2 153d a89d 87bd 5c57 e5bc
00000110: 9cef 85bd 0726 d83c 1044 e73c fc41 6cbd
00000120: a474 e5bc 016c 33bc b386 b93b 47ca 483d
00000130: 2016 533d 958a 123d 0a6c 183b c18c 0cbb
00000140: 9ccf 81bc c01b 98bb 59c9 00bd a02c 7abd
00000150: a8d8 0abd 2f0b 6b3d e66a 86bd 7cee 43bd
00000160: f5e9 0a3d 5c51 723d e526 033d 7b30 603d
00000170: 4c1b 50bb 6431 2cbd a6fe 3abd 64ac afbc
00000180: 080b 6dbc 852c 1dbd edc0 63bb 7039 2bbd
00000190: 9655 3bbd b494 63bb 3381 b43c 5890 e6bc
000001a0: a340 8c3c 695b 473d da9f 073d 41cb be3c
000001b0: f987 67bd e4ec 8a3d c47a a03c d4e8 523d
000001c0: 0c1b b2bc 604f 883c 6e5d 523d 1ee0 343d
000001d0: 6660 4e3d 9fcf 373d da2a 0f3d 9058 633d
000001e0: e76f 99bb 6ad4 61bd 34b1 10bd 3252 81bd
000001f0: 6b19 cd3c 5a08 c93b a4b1 443c 44ee e13c
0.0038640648 -0.044207938 0.02761802 -0.060534477 -0.02473471 -0.042045377 0.053898767 0.040473536
-0.010202734 -0.0048973686 0.039058696 -0.034133535 -0.042268105 0.04639502 0.02935663 -0.026543431
-0.039647557 0.058632936 -0.04337628 -0.014549553 -0.00034184754 0.056270815 0.0046295393 -0.06409018
0.035911012 0.00079926196 -0.04078574 0.044068497 -0.051130652 0.045157183 -0.011420994 -0.06199623
-0.019590816 -0.035034463 0.03565851 -0.04251008 -0.040587477 -0.04259292 0.029437842 -0.03477078
-0.03395296 -0.058463316 -0.045967974 0.052069288 -0.0201793 -0.0368565 -0.025639758 -0.050384946
0.004432426 0.04361743 -0.0062704864 -0.011477053 0.051450487 -0.021347106 0.06278489 -0.009075057
0.028259233 -0.0044541955 0.0107583245 -0.029593728 0.033539794 0.05365126 0.024840252 0.057101518
0.027804347 0.036562286 -0.066218674 -0.027995758 -0.065398425 0.02638532 0.028230697 -0.057680115
-0.02800972 -0.010951043 0.0056618094 0.04902103 0.051534772 0.035776693 0.0023257756 -0.00214462
-0.015846066 -0.00464198 -0.03144202 -0.061077714 -0.033898026 0.057383712 -0.06563358 -0.04783486
0.033914525 0.05915962 0.032019515 0.054733735 -0.0031754551 -0.04203929 -0.045653008 -0.021444507
-0.014467962 -0.038372535 -0.0034752444 -0.041802824 -0.045735918 -0.0034726085 0.022034263 -0.028145
0.017120665 0.04867116 0.03311143 0.023290278 -0.056526158 0.067834646 0.01958979 0.051491573
-0.021741413 0.016639411 0.051358633 0.044159047 0.0503849 0.044875737 0.034952976 0.05550438
-0.0046825293 -0.055134214 -0.035325244 -0.06314506 0.025036534 0.006135029 0.012005243 0.027579434

net.6.weight f4 [64, 128]
00000000: 16b3 a0bd ce3b 05bd a420 0b3a 95fc 54bd
00000010: 9201 a1bd 166d 673d c149 5c3c f905 a53d
00000020: c4b3 a6bd c010 e53c 74d2 febc 93fc 733d
00000030: b270 113d 74a8 7dbd 68b2 93bd 13ca 843d
00000040: 6777 78bd 1b4c 3bbd 47a0 923c 6b81 8fbd
00000050: 3cdc a13d 8aa4 9e3c b186 43bd df72 87bd
00000060: b229 223d 436c a6bd 04da 943d be5c 183d
00000070: e905 243c c1e8 c6bb 7165 8abd 42a0 b13d
00000080: bf53 6dbd cbd4 6c3d 87fd aabd 1581 81bd
00000090: 8622 31bd 09ed 3dbd 6f52 e93c 2bd8 183d
000000a0: 0225 aa3d 3b74 913d 3f47 6fba e833 8c3c
000000b0: ad41 b03d 399a 02bd 6712 8bbd 56a2 613d
000000c0: acb9 b7bd ba64 aabd 77da 98bd b3ff 86bd
000000d0: e8fc ee3c 97ea 363d bc49 d3bc b924 963d
000000e0: 9e97 5cbd 572e 243c 76e1 bbbc 6c4e 1cbc
000000f0: d331 0fbb 1a83 67bd e851 9ebd 0201 993d
00000100: 02d7 e2bc 836e 8b3c fb33 aa3d b3d8 b0bd
00000110: 2ffe 683c 32ef 87bb 245e 90bd 165d 863b
00000120: 0129 133d 9f43 6c3d b05c 193a 6a4e 8e3d
00000130: 2a59 51bd 27a1 5abd 77a8 843d ab0e 01bd
00000140: e1f7 e4bc 07be 19bd d2d8 aa3d ca7f 963d
00000150: 625c 0a3d d42e 83bd 9863 883d a9f3 80bd
00000160: c3ee 593c 297d c7bc 528d 03bd 02ac 0cbd
00000170: a357 f9bc aa27 db3c c21b ef3a cc59 75bd
00000180: 461f c9bc 1d28 24ba 559c bbbc ac95 313d
00000190: 1d18 a3bc 03db 98bd 4a3c a2bd 3c94 93bc
000001a0: 2c2b b73c 6261 983d 1a7d ae3d d181 a3bd
000001b0: 0525 85bd da0b 0e3d 8298 99bd 763e 993d
000001c0: 212a a4bd 4915 a53c 4e44 ccb9 823d 94bd
000001d0: cc34 093d f61f cb3c aecf 073d 97e4 d33c
000001e0: a61a 12bd 2732 973d 5e83 813d 5f10 9e3d
000001f0: cede 373d 75a0 26bd 73ee 6dbc e329 373d
00000200: 363d 1b3d ac53 67bd b9b9 62bd 3185 843d
00000210: 2db0 573d 4d93 1b3c b99b b23d 7a9a a93d
00000220: 5eee 503c 52d7 8a3d 88d9 733d d347 5cbd
00000230: 403d 73bc 208f 903d 5d65 4e3d 3283 b4bb
00000240: 2db0 beba df9d a73d 7bb4 9d3c 7204 9cbd
00000250: ff07 623d 7552 35bd d882 9cbd f8e9 09bc
00000260: 3db5 343b 60c9 433d 8cd2 4c3c d287 673d
00000270: 42c6 7f3c 0c3a 62bd 0287 933d 7ab0 85bc
00000280: a84b 433d 4b97 45bd f810 6cbc c917 9abd
00000290: 9e99 adbd 4cd2 d73c c100 77bd 96d2 8bbc
000002a0: 834a abbd d005 973d 09ea 7c3d b196 63bc
000002b0: 47e9 b43d 2d3c 933d 89c6 54bd 7bf1 6fbc
000002c0: b171 a1bd 1f88 4e3d b6b1 f63a 4581 d0bc
000002d0: b8a7 02bd 4dee 9e3d 2d65 493d 5cd4 9abd
000002e0: f0a2 433d 0cab 603d 74ed 553d 48c9 70bd
000002f0: 013d b03c 0eeb a03c 2705 4a3d f4a7 e33c
00000300: e7ae 2bba a702 243d eb7b 87bd b622 86bd
00000310: 504e 89bd 56fd ab3b 8d92 a8bd c8d3 1ebd
00000320: 288d aabd 96bd ea3c 88fd 073d 6235 a9b9
00000330: 572d 953d 6472 79bc d079 553d d16e 0f3d
00000340: 2a4d 393d 695e 3b3d 8579 68bc b2ae 8e3d
00000350: 9914 aa3d 2f5b 89bd 2eb6 733c cc34 833d
00000360: c8af b5bd 7c45 0f3d 184a 153d c13a aa3d
00000370: 13e9 923d c778 95bd c011 c9bc dfba c53c
00000380: 781f 323d 7fee 76bc ee07 a0bd b049 5abd
00000390: b707 043c ef3f 95bd 97c3 073d 0b60 bebc
000003a0: 6207 7f3b 5d64 f0bc fa73 e73c e66f 343d
000003b0: 66ed 96bd db97 1bbc b1da 623d 14bf b3bd
000003c0: d504 c7bc 74f2 51bd 61ae 2ebd ed9d f63c
000003d0: da49 9fbd d09b 9bbc 873f b53d 0196 683d
000003e0: 67ba 9b3c ac85 98bd 4ba9 1b3b 96cd 653d
000003f0: a69c 783d bdbf 89bd 2791 a0bd bcd4 cd3c
-0.07846658 -0.032527737 0.0005307293 -0.051998693 -0.07861628 0.056500517 0.013445319 0.0805778
-0.08139756 0.027962089 -0.031106211 0.059567045 0.035507865 -0.061928228 -0.07211763 0.06483855
-0.060660746 -0.045726877 0.017898692 -0.070071064 0.079033345 0.019365568 -0.047735874 -0.06613707
0.039590545 -0.08126118 0.07268146 0.03719782 0.010011175 -0.006070227 -0.0675763 0.08673145
-0.057941195 0.057820123 -0.08349138 -0.063234486 -0.043245815 -0.046368632 0.02848169 0.03731553
0.0830784 0.07102247 -0.0009127743 0.017114595 0.08606277 -0.03188536 -0.06790619 0.055086456
-0.08970961 -0.08319993 -0.07463544 -0.065917395 0.02917333 0.044657316 -0.025791995 0.07331223
-0.05385553 0.010020814 -0.022934657 -0.009540182 -0.0021849766 -0.056521513 -0.07730466 0.07470895
-0.027690414 0.01702047 0.08310696 -0.08635082 0.014220758 -0.0041483874 -0.07049206 0.004100452
0.035927776 0.057681676 0.00058502983 0.0694855 -0.051110424 -0.053376343 0.064774446 -0.03150813
-0.02795023 -0.03753474 0.083421364 0.073485926 0.03377951 -0.06405416 0.06659621 -0.062964745
0.013301554 -0.024351673 -0.032117195 -0.034343727 -0.030437296 0.026752312 0.0018242525 -0.05990009
-0.024551045 -0.0006262081 -0.022901693 0.04335563 -0.019908959 -0.07463648 -0.079216555 -0.01801502
0.022359453 0.07440449 0.08519955 -0.07983745 -0.065012015 0.03467927 -0.07499792 0.074826166
-0.08015848 0.020151751 -0.00038960803 -0.07238294 0.033497617 0.024795514 0.033157043 0.025865836
-0.035669945 0.07382613 0.063238844 0.07717966 0.044890217 -0.040680367 -0.014522183 0.04471768
0.037900172 -0.05647628 -0.0553529 0.06470717 0.05265825 0.009495568 0.08721108 0.08281417
0.012752144 0.0677935 0.059533626 -0.053779434 -0.014846146 0.07058549 0.050389636 -0.0055088038
-0.0014548354 0.081844084 0.019251099 -0.076180354 0.055183407 -0.04426809 -0.07642144 -0.008417599
0.0027573847 0.047799468 0.01250137 0.056526013 0.015611233 -0.05523114 0.07203485 -0.016319502
0.047679573 -0.048239987 -0.014408343 -0.07524068 -0.08476566 0.026345395 -0.060303453 -0.017068189
-0.08363821 0.073741555 0.06174663 -0.013890908 0.088335566 0.07189212 -0.05194715 -0.014644976
-0.07883013 0.050422784 0.0018821273 -0.025452266 -0.03189823 0.07760296 0.049168754 -0.075600356
0.04776281 0.054850623 0.052228406 -0.058785707 0.021513464 0.019643333 0.04932132 0.027790047
-0.0006549195 0.040041592 -0.06615432 -0.06549589 -0.0670439 0.005248706 -0.08231077 -0.03877619
-0.08327705 0.028654855 0.03320077 -0.00032273965 0.072840385 -0.015225027 0.052118123 0.035017792
0.045239605 0.045744333 -0.014189129 0.06966914 0.0830471 -0.06706845 0.014874978 0.064065546
-0.08871418 0.034978375 0.036447614 0.08311988 0.07173362 -0.07298427 -0.024544597 0.024136959
0.043487042 -0.01507151 -0.078140125 -0.05329293 0.00805848 -0.07287585 0.033145513 -0.023239156
0.0038914313 -0.029344732 0.028253544 0.044052027 -0.07369499 -0.009496654 0.05538434 -0.0877668
-0.024294296 -0.051256612 -0.04264677 0.030104602 -0.07777758 -0.018995196 0.088500075 0.05678368
0.019009782 -0.07447371 0.002375203 0.056104265 0.060696267 -0.06726024 -0.078401856 0.025125854

net.6.bias f4 [64]
00000000: 3697 533d 1059 9c3d 6888 ffba 1e81 81bd
00000010: 9f61 3c3d 8d9d b73d 886c 683d 9d3c 243d
00000020: be02 97bd 8141 a73d d443 6dbc 47ff 933d
00000030: e371 b33c abf2 a03d 0443 d9bc cd8f 8ebd
00000040: c0f7 85bd a9dc 73bd 2b7f 903c 08b6 21bd
00000050: dfb1 853d 9800 7f3d b80b da3b 2606 363d
00000060: baa1 ae3d b9d9 a5bd b5ff 563d 4e2f 883d
00000070: f2d6 e5bc fef3 613d 3bd0 b4bd ce32 74bd
00000080: f619 043d 3138 2f3d 8f5b 96bd b596 a83b
00000090: f47c 76bd 6875 403c 962e a63d 62d9 863d
000000a0: 1189 a13d 3207 593c f20a 073d 92c3 c43c
000000b0: cbbc 973c 9cc3 813d c6cf 60bc 53aa 543c
000000c0: 01fd 86bd b3ba ee3c 7b28 a43d c912 f43c
000000d0: 3180 823d 6ba0 b2bb 8163 fe3c c23a 1cbd
000000e0: d77c 45bc 672a 87bc c889 9abd 2a4d 80bd
000000f0: c0b5 dabc 61ff 98bd 80e1 893d a64a 9d3c
0.051657878 0.07634175 -0.0019495608 -0.06323455 0.045991536 0.08965597 0.05674413 0.040096868
-0.0737357 0.08166791 -0.0144815035 0.07226425 0.021904891 0.07858785 -0.026521213 -0.069610216
-0.06541395 -0.05953661 0.017638763 -0.03948024 0.06528067 0.062256426 0.006654229 0.044439457
0.08526941 -0.08098168 0.052489955 0.06649648 -0.028056595 0.05516433 -0.08828779 -0.059618764
0.03225132 0.042778198 -0.07341682 0.005144919 -0.06017776 0.011746742 0.08114354 0.06584431
0.078874715 0.013246344 0.032969423 0.024019036 0.01852264 0.06336138 -0.013721412 0.012980062
-0.065912254 0.02914176 0.080155335 0.029794114 0.06372107 -0.005451252 0.031053307 -0.038141973
-0.01205369 -0.016499711 -0.07545811 -0.06264718 -0.026697993 -0.07470585 0.06732464 0.019200634

net.8.weight f4 [3, 64]
00000000: 59ef 90bd 0692 21bd 64cb f63d 14ba f7bd
00000010: 96bd 83bd 537a f1bd c139 9c3d fe49 acbd
00000020: e2d6 b63d 2c43 cdbd c519 cc3d f9cd a63c
00000030: 9594 9abd 6c2b 9bbd bcbe 27bd 8cc6 b8bd
00000040: 9460 39bd 9045 ffbd f75a c5bd 0839 593d
00000050: 0791 eb3c 8e23 b8bd a26c d4bd ec27 4b3d
00000060: 1b7e 9e3d fc8c 91bd a43f d5bc b9fa 2e3d
00000070: 94ac aa3d 027b 943d 1e6e a8bd 0a9b b03d
00000080: 1e22 9abd 0075 81bd a6a6 fa3d 1357 423d
00000090: 2a7c b0bd f22b 8f39 b21a c3bd c678 933d
000000a0: c472 f2bd 105a a33d 25ab 773b 03db 543d
000000b0: 224d 3a3d 2e8a 3abd 506b 63bd 5eb6 78bd
000000c0: c9bf 363d 274e b3bd f21a 943c 41eb e23d
000000d0: 1d50 97bd a0b9 2fbc 629b 5ebd d6ad bcbc
000000e0: 613f 283d faf5 f63d d7ae f73d d869 d43c
000000f0: 2816 c4bd 76c0 c4bd fde4 1dbd 0275 2bbd
00000100: 006f 083b e60b d7bd dd82 89bd 2980 e5bd
00000110: 3c87 ebbd 6d3d 6d3d a8bb 883c fb1e d73d
00000120: 4c79 a8bd a3f2 213d f1e3 cabc 6212 c93d
00000130: 46c6 5f3d 6d8e 51bd 6015 0cbc 0c6d 75bd
00000140: d04c 803c 42af b8bd ec1d dc3d f838 93bd
00000150: 9db5 193d 2289 d53d f168 d4bd 6b41 97bd
00000160: 02b1 933d 4cbc 9b3d 7abb d0bd 5fdd f73c
00000170: 1c49 4cbd b04a 95bd 4073 033c a16c b83d
00000180: 65c7 84bd 3386 a03d f115 14bd d6c6 a93d
00000190: 5ee7 ef3c 6c20 7a3d 5ba7 bb3d c4d9 013e
000001a0: 26a1 d83d ba9f f63d 0e74 9a3d 1700 f63c
000001b0: 6e53 1bbd a920 c63d cad6 923d 9e47 a43d
000001c0: aaa4 ec3d 2a7b b33c 36a2 60bd 9a61 7cbd
000001d0: 4a4a 523d c2d6 d33d 0dc4 72bd 4544 9a3d
000001e0: eb6c 933a c0d8 b0bd be1e f03d 708c 9c3d
000001f0: 7fa6 09bd 4e5b 96bd f0dc 3cbc 3a8f c9bd
00000200: 58b1 6e3d 2816 71bd 130e c6bd 71b3 8dbd
00000210: 2fd8 fd3c 468d a4bd 4ef6 b3bd b40e 7f3d
00000220: 60a0 6fbc 83e3 12bd f404 a13d c44b bd3d
00000230: ea54 083c 6220 b7bd 0a4d 4b3d ac0f 1c3d
00000240: 5aa4 d03d 4c3b 653d c50c 853d dcdf f9bd
00000250: c297 c7bd ebe3 6b3d 0782 c9bc db40 ef3c
00000260: ff72 01bb 8c97 ca3d 585d a0bd ceb0 c13d
00000270: 001d 2cbc 7604 ac3d 38e1 9c3d ad16 dc3c
00000280: 6180 b3bd b05f 20bd 3439 e5bd 40bd de3d
00000290: 3594 93bd b7db 373d 5c5a c9bd ae2d d6bd
000002a0: c271 523d 1f38 b9bc d978 c03d 6e4a c13b
000002b0: d2ad cdbd ba25 aabd 504a bd3d 32fd 98bd
000002c0: b0a2 c6bc e4d1 e43c cfb6 e13d c15b e73d
000002d0: f274 81bd b4b3 34bd 3ea0 02be 240c fbbd
000002e0: 4870 77bd 90de aabc 0775 e83c 687e 78bd
000002f0: cc4d dc3d c0ba 403d 3653 8cbd f93f 093d
-0.07076902 -0.0394459 0.120505124 -0.120960385 -0.06432645 -0.117909096 0.07628203 -0.084125504
0.089277044 -0.10022578 0.09965853 0.020361887 -0.07547871 -0.075766414 -0.040953383 -0.09022245
-0.04525812 -0.1246444 -0.09636491 0.053032905 0.028755678 -0.089911565 -0.103722826 0.04959862
0.077388965 -0.07106969 -0.026031323 0.042719577 0.08333698 0.072500244 -0.08224128 0.08623321
-0.075260386 -0.06321144 0.12238817 0.04744632 -0.086174324 0.00027307827 -0.09526576 0.0720077
-0.11838296 0.079761624 0.003779122 0.05196668 0.045483716 -0.045541935 -0.055522263 -0.060720794
0.044616494 -0.08755141 0.018079255 0.11080027 -0.07388327 -0.010725409 -0.054347403 -0.02303211
0.041076068 0.12058635 0.12093895 0.025929376 -0.095745385 -0.096070215 -0.03854846 -0.041859634
0.0020818114 -0.10500316 -0.06714413 -0.11206085 -0.11500403 0.05791991 0.016691044 0.10503956
-0.082262605 0.039538037 -0.024766894 0.09817959 0.054632448 -0.05116122 -0.008550018 -0.05991845
0.015661627 -0.09017803 0.10747895 -0.071886 0.037526716 0.10426547 -0.103715785 -0.07385524
0.07211496 0.07604274 -0.10192008 0.030256925 -0.04987441 -0.07289636 0.008023083 0.09005094
-0.06483344 0.078380965 -0.036153737 0.08289878 0.02928513 0.061066076 0.0916278 0.12680727
0.105776116 0.12042184 0.07541667 0.03002934 -0.03792136 0.09674198 0.07169874 0.080214724
0.11554845 0.021909315 -0.054842196 -0.061616518 0.05134038 0.10343696 -0.059269 0.07532553
0.001124767 -0.08635092 0.117246136 0.07643974 -0.03360605 -0.07341634 -0.011527285 -0.098417714
0.058274597 -0.05885902 -0.09670653 -0.06918991 0.030986873 -0.08034758 -0.08787213 0.06226988
-0.014625639 -0.035861503 0.07862273 0.09242967 0.008321026 -0.089417234 0.049634017 0.038100883
0.101875976 0.055964753 0.06496576 -0.12200901 -0.097457424 0.057590406 -0.024598135 0.02920573
-0.001975238 0.098921865 -0.07830304 0.09457551 -0.010504961 0.08399288 0.076601446 0.026866281
-0.08764721 -0.039153755 -0.11192551 0.1087594 -0.072060026 0.04488727 -0.09831688 -0.104579315
0.05137802 -0.022609768 0.0939805 0.0058987653 -0.10042919 -0.08307977 0.092426896 -0.07470168
-0.024247497 0.027932115 0.11021196 0.112967975 -0.06321134 -0.04411669 -0.1275644 -0.12258175
-0.060409814 -0.02085808 0.028376115 -0.060667425 0.10757026 0.0470531 -0.06851809 0.033508275

net.8.bias f4 [3]
00000000: 5da9 df3d 12c7 2abc 5ed9 ec3d
0.10920975 -0.010423439 0.11564897
