models/models_random_map_deep_q/1_model.pkl (torch, 185997 bytes, 8 tensors)

net.0.weight f4 [256, 16]
0	0xbdeb4be9	-0.11489088
1	0xbc997482	-0.018732313
2	0x3e47d828	0.19516051
3	0x3dc5221f	0.09625649
4	0x3de6eaaa	0.11275227
5	0xbe01cd83	-0.12676053
6	0xbe028f5b	-0.12749998
7	0xbe50cf82	-0.20391658
8	0x3cb5ad42	0.022177342
9	0x3b98bd65	0.0046612495
10	0x3cdd2d8f	0.026999263
11	0xbcf44031	-0.029815765
12	0x3e23557f	0.15950583
13	0xbdf918cb	-0.12162932
14	0x3e06a2e5	0.13148077
15	0x3e106932	0.14102629
16	0x3dc66ebb	0.09689089
17	0xbe4385cb	-0.19094007
18	0xbc969ea2	-0.018386189
19	0xbd5a75f7	-0.053335156
20	0xbdba65b9	-0.09101433
21	0xbdc9bfcf	-0.09851038
22	0x3de4d150	0.11172736
23	0x3e7b8e77	0.24566065
24	0x3e1cf4c6	0.15327749
25	0xbcce802a	-0.025207598
26	0xbe1c3fb7	-0.1525868
27	0x3e15cd81	0.14629175
28	0x3e6c87e4	0.23098713
29	0xbe368d52	-0.17827347
30	0x3e51870f	0.20461677
31	0xbc00523e	-0.007832108
32	0x3ce72330	0.02821502
33	0xbe73cffa	-0.23809806
34	0xbdd1b798	-0.10240096
35	0xbe61e2b8	-0.22059143
36	0xbe0300e4	-0.12793308
37	0xbd3fe820	-0.04685223
38	0xbe03a22e	-0.12854835
39	0x3dcc417c	0.09973428
40	0xbd598868	-0.053108603
41	0xbd100a08	-0.035165817
42	0xbce616e0	-0.02808708
43	0x3e7854ae	0.24251053
44	0xbe32365e	-0.17403552
45	0xbe31b7d8	-0.17355287
46	0x3d2c37d8	0.042045444
47	0x3e3bb120	0.18329287
48	0xbe4239b8	-0.1896733
49	0x3d92ca2c	0.071674675
50	0xbbc92400	-0.0061383247
51	0x3de917bc	0.1138148
52	0xbe1a1a82	-0.15049174
53	0xbe2d29ea	-0.1691052
54	0xbe1417ca	-0.144622
55	0xbe5dd130	-0.2166183
56	0x3d88804c	0.06665096
57	0x3e0b8ab0	0.13627124
58	0xbe122462	-0.14271691
59	0x3e6a1efc	0.22863382
60	0xbe1f9442	-0.155839
61	0xbd9293f8	-0.07157129
62	0x3d8c931c	0.068639964
63	0xbe1441a0	-0.14478159
64	0xbe5550f6	-0.20831665
65	0x3dfaeb7c	0.12251946
66	0xbdb9bab8	-0.09068817
67	0xbdddc5e0	-0.10828757
68	0xbe65e2c4	-0.22449785
69	0x3dcebee0	0.10095
70	0x3b508180	0.003181547
71	0xbe4338ac	-0.19064587
72	0xbd561748	-0.052268296
73	0x3d12c388	0.035831004
74	0x3e49af0e	0.19695684
75	0xbd885858	-0.06657475
76	0x3dc806c4	0.097669154
77	0xbd471d70	-0.04861206
78	0xbe65847c	-0.2241382
79	0xbdf62e28	-0.12020522
80	0xbce72560	-0.028216064
81	0xbdd062d8	-0.10175103
82	0x3ddc1ef4	0.10748091
83	0x3d864a78	0.065571725
84	0xbe1760a2	-0.14782956
85	0x3c964820	0.018344939
86	0xbd8b7d14	-0.06810966
87	0x3e651848	0.22372544
88	0x3d9bb650	0.07603133
89	0xbe6f389c	-0.23361439
90	0x3e74e2ae	0.23914596
91	0xbe263580	-0.16231346
92	0xbe64891e	-0.22317931
93	0xbe7854a8	-0.24251044
94	0xbe69ea5a	-0.22843304
95	0xbe05e3f8	-0.13075244
96	0x3c6c9320	0.014439374
97	0xbe2c0582	-0.16798976
98	0xbd16ff60	-0.03686464
99	0x3d956060	0.07293773
100	0xbba631c0	-0.0050718486
101	0xbe4fe300	-0.20301437
102	0xba37ac00	-0.0007006526
103	0x3df0a324	0.117498666
104	0x3db3d388	0.08780581
105	0x3e638070	0.22216964
106	0xbe5d348e	-0.2160208
107	0x3d046820	0.032325864
108	0x3d892870	0.06697166
109	0xbd718098	-0.058960527
110	0xbe661f9e	-0.22472998
111	0xbe071a28	-0.13193572
112	0x3e1cea22	0.1532369
113	0xbd384629	-0.044988785
114	0xbe28288c	-0.16421717
115	0xbe06d572	-0.1316736
116	0xbdb017b4	-0.08598271
117	0x3e3415e4	0.17586476
118	0x3ca1b9c0	0.019741893
119	0x3e1885a8	0.14894736
120	0xbe46a18c	-0.19397563
121	0x3e236506	0.15956506
122	0xbe5f2194	-0.21790153
123	0xbdebee0b	-0.115200125
124	0xbc92a6cd	-0.017901802
125	0xbe00b9ab	-0.12570827
126	0x3d55ca6f	0.05219501
127	0x3e19fb38	0.15037239
128	0xbe226bdc	-0.15861458
129	0xbe6d8797	-0.23196255
130	0xbe57f12b	-0.21088092
131	0xbe79a721	-0.24380161
132	0x3e7bb47e	0.24580571
133	0x3e24f8a5	0.16110475
134	0x3dfea88e	0.12434493
135	0xbd315f61	-0.04330385
136	0xbd6816ce	-0.056662373
137	0xbe221253	-0.15827303
138	0x3e76dd33	0.24107818
139	0xbe6348ce	-0.22195742
140	0x3e2c154e	0.16805002
141	0x3e3f9cef	0.18712209
142	0x3dd2b11a	0.10287686
143	0x3e56a1f7	0.20960222
144	0xbe6bf10c	-0.23041171
145	0x3cfa5f12	0.030562911
146	0x3e3bf8ce	0.1835663
147	0xbe3ca48c	-0.18422145
148	0x3e7158f1	0.23569085
149	0xbe39843e	-0.18116853
150	0x3cd29bd2	0.025709067
151	0xbcadd41e	-0.02121931
152	0x3d2a2d75	0.041547257
153	0xbe0c605a	-0.1370863
154	0xbc6e207e	-0.014534114
155	0x3dc65ebd	0.09686039
156	0xbe5bcad6	-0.21464095
157	0x3ddfc5cb	0.10926398
158	0x3d90cfde	0.070708975
159	0x3e6226ba	0.22085086
160	0xbdc38820	-0.09547448
161	0xbba80540	-0.005127579
162	0xbd17ee70	-0.037092626
163	0xbe6a744c	-0.22895926
164	0xbe218cf0	-0.1577642
165	0xbde29154	-0.110628754
166	0xbddb3450	-0.10703337
167	0x3e53cedc	0.2068438
168	0x3de8f004	0.11373904
169	0x3d7ccda0	0.061719537
170	0x3ca9bc20	0.020719588
171	0xbd9ec7f4	-0.07752982
172	0xbd763100	-0.060105324
173	0xbdda751c	-0.10666868
174	0xbe6c8f8c	-0.23101634
175	0x3e313702	0.1730614
176	0x3cea39a0	0.02859193
177	0xbe20b076	-0.15692315
178	0x3e15701c	0.14593548
179	0xbe2a4070	-0.16626143
180	0xbe2efb20	-0.17087984
181	0x3e263ad4	0.16233379
182	0x3e75e560	0.24013281
183	0xbe06adf6	-0.13152298
184	0xbcdc7020	-0.026908934
185	0x3c5f44c0	0.013627231
186	0xbdea3244	-0.11435369
187	0xbdc34ac4	-0.09535745
188	0x3c840ac0	0.016118407
189	0x3d879a44	0.06621221
190	0xbe7d9f3c	-0.24767774
191	0xbda7ab38	-0.08186954
192	0xbe3ef211	-0.18647029
193	0x3e31409b	0.17309801
194	0xbe03512f	-0.12823938
195	0x3e1429f5	0.1446913
196	0x3e337ec8	0.17528832
197	0x3e58e517	0.21181141
198	0xbe032d5c	-0.12810272
199	0xbe589171	-0.21149231
200	0x3d82fc11	0.06395734
201	0x3e7c258d	0.246237
202	0xbc8c8ed1	-0.017157944
203	0x3e02d0bc	0.12774938
204	0x3e7b36d6	0.24532637
205	0xbe04a404	-0.12953192
206	0xbe42c4ac	-0.19020337
207	0x3cd8b4ed	0.02645346
208	0x3d7bb462	0.061451323
209	0xbd908bf1	-0.07057942
210	0x3d5174fd	0.05113696
211	0xba4d5892	-0.00078333274
212	0xbe0f4ea3	-0.13994841
213	0xbe2db616	-0.16963992
214	0xbce1c46d	-0.027559483
215	0x3e20950b	0.15681855
216	0x3d1f334e	0.038867287
217	0xbbcc9047	-0.006242785
218	0x3d9ceff6	0.076629564
219	0x3e48c4e7	0.19606362
220	0xbe1ee6f8	-0.15517795
221	0xbd21be9e	-0.039488427
222	0x3dda0db4	0.10647145
223	0xbd0fddd7	-0.035123672
224	0xbe46ffa1	-0.19433452
225	0xbc0402cf	-0.00805731
226	0x3e061050	0.1309216
227	0x3e811156	0.2520854
228	0xbe2512a0	-0.16120386
229	0x3e6d3259	0.23163737
230	0x3d96943a	0.07352491
231	0x3e050a20	0.12992144
232	0x3e1c8448	0.15284836
233	0xbe064a15	-0.13114198
234	0xbe6a442f	-0.22877572
235	0xbe6377c9	-0.22213663
236	0x3d2ec999	0.042672727
237	0xbdc73345	-0.09726576
238	0x3e16a569	0.14711536
239	0x3e7497c1	0.23886015
240	0xbe66400f	-0.22485374
241	0x3e15380a	0.14572158
242	0x3e735ace	0.23765108
243	0x3dbb9d4f	0.091608636
244	0x3e1eef8a	0.15521064
245	0x3cff972a	0.03120001
246	0xbe73f150	-0.23822522
247	0xbe34d4ac	-0.17659253
248	0xbdb47839	-0.08811993
249	0x3e6dbd61	0.23216774
250	0xbe2e52b0	-0.1702373
251	0x3e0f446e	0.13990948
252	0x3e0eed98	0.13957822
253	0xbd048865	-0.03235664
254	0x3e04273a	0.12905589
255	0x3e23f9f8	0.16013324

net.0.bias f4 [256]
0	0xbe5cd0a4	-0.21563965
1	0xb974b15d	-0.00023335726
2	0x3d858a5c	0.065205306
3	0xbd9d61e0	-0.07684684
4	0xbe568836	-0.20950398
5	0xbe1adcec	-0.15123338
6	0x3de75f4c	0.11297473
7	0xbcdecb50	-0.027196556
8	0x3e4348c7	0.19070731
9	0xbd59e110	-0.053193152
10	0xbdfade1c	-0.12249395
11	0xbe48e248	-0.1961757
12	0xbd77419a	-0.060365297
13	0x3e4ba5d3	0.19887476
14	0xbe1ac372	-0.15113619
15	0x3e2c3178	0.16815746
16	0x3df91a6c	0.12163243
17	0x3dc03ce6	0.093866155
18	0x3d17f300	0.037096977
19	0x3d9b114e	0.0757166
20	0x3bfd3f80	0.007728517
21	0x3c874e44	0.016516812
22	0x3e57de29	0.21080841
23	0x3d552660	0.05203855
24	0xbe78f81e	-0.24313399
25	0xbdd62b67	-0.10457497
26	0xbdbd199e	-0.09233402
27	0xbe60822e	-0.2192466
28	0x3e29e233	0.16590194
29	0x3e6f3f61	0.23364021
30	0xbdc0e124	-0.09417942
31	0x3e271e26	0.16320094
32	0xbde16d54	-0.11007181
33	0xbe343efb	-0.1760215
34	0xbe49367a	-0.19649687
35	0x3df4c198	0.119509876
36	0xbc452b96	-0.0120343175
37	0xbe776f10	-0.2416346
38	0x3e4c3861	0.19943382
39	0xbd9aaf6c	-0.0755299
40	0x3dba7f18	0.091062725
41	0xbd587220	-0.052843213
42	0xbda3ab94	-0.0799171
43	0x3dce1210	0.10062039
44	0x3d4ffe8c	0.050779864
45	0xbda5aed4	-0.080899864
46	0x3e3f7a0c	0.18698901
47	0x3d864614	0.06556335
48	0xbb283ba6	-0.002567032
49	0xbda64a16	-0.081195995
50	0xbe545749	-0.20736422
51	0x3d29c2b1	0.041445438
52	0xbe0dfe9f	-0.13866661
53	0xbd49f2c1	-0.049303774
54	0xbcb4b823	-0.02206046
55	0xbe0e14d8	-0.13875139
56	0xbe1d3c84	-0.15355116
57	0x3d89df2d	0.067320205
58	0xbe70e124	-0.23523384
59	0x3ddb09f7	0.1069526
60	0xbe6eb4bc	-0.23311132
61	0xbde7d364	-0.113196164
62	0x3de57114	0.112032086
63	0xbe06389a	-0.1310753
64	0x3e81a1ac	0.25318658
65	0xbcbeec66	-0.023306083
66	0x3e7f91a6	0.24957904
67	0x3d87795c	0.06614944
68	0x3e1887fa	0.14895621
69	0xbe5a0216	-0.21289858
70	0x3db690e0	0.089143515
71	0x3dcf6527	0.10126715
72	0x3d80fff4	0.06298819
73	0x3e52ccb0	0.20585895
74	0xbc969150	-0.018379837
75	0xbdaa1640	-0.08305025
76	0xbe0712f0	-0.13190818
77	0xbe14081a	-0.14456216
78	0xbe031da0	-0.1280427
79	0xbcdfe9eb	-0.02733322
80	0xbe65fdb5	-0.22460063
81	0xbe68169d	-0.22664876
82	0xbdc2a97c	-0.09504983
83	0x3dbe5b15	0.09294716
84	0x3e0eec91	0.1395743
85	0xbe563fdc	-0.20922798
86	0xbe54867e	-0.2075443
87	0x3e40c4e0	0.18825102
88	0x3e5658ee	0.20932361
89	0xbe182f1a	-0.14861718
90	0xbe4b9b94	-0.19883567
91	0x3e471b1a	0.19443932
92	0x3d337ed8	0.04382214
93	0x3da284e6	0.079355046
94	0xbdc3d296	-0.095616505
95	0xbe23e74e	-0.16006204
96	0x3e5f833a	0.21827403
97	0xbd2c2bf9	-0.042034123
98	0xbe0281e4	-0.12744862
99	0xbdb5fc03	-0.08885958
100	0xbe7b91a1	-0.24567272
101	0xbdf311a8	-0.11868602
102	0x3dceaf4c	0.10092029
103	0x3d749c40	0.059719324
104	0xbdba678e	-0.09101783
105	0x3dcfc621	0.10145212
106	0x3dea7b12	0.11449255
107	0xbe442a6a	-0.19156805
108	0x3d601702	0.054709442
109	0x3d909633	0.07059898
110	0xbe327c04	-0.1743012
111	0xbda64dc9	-0.08120305
112	0xbe7749a4	-0.24149185
113	0x3e390e46	0.18071851
114	0xbe545056	-0.2073377
115	0x3dc03ed7	0.09386986
116	0xbda4b16c	-0.08041653
117	0x3e3a64eb	0.1820256
118	0x3e2a0a98	0.16605604
119	0x3d13a25e	0.036043517
120	0x3d339610	0.043844283
121	0x3d9d5968	0.076830685
122	0x3e3b4af9	0.18290319
123	0x3d7df1ae	0.06199806
124	0xbe2e073a	-0.16994944
125	0x3cacebf7	0.02110861
126	0xba583200	-0.00082471967
127	0x3c641e5d	0.013923255
128	0xbe56ca20	-0.20975542
129	0xbd83fdc0	-0.06444883
130	0xbe0341bb	-0.12818043
131	0x3dde6ae6	0.10860233
132	0xbe6371f4	-0.22211438
133	0xbd29e073	-0.041473817
134	0x3e30acd4	0.17253429
135	0x3e3e36ce	0.18575594
136	0x3e071c88	0.13194478
137	0xbe5b2476	-0.21400627
138	0x3e50ac7c	0.20378298
139	0xbe4bbc5d	-0.19896074
140	0x3e1cb8e5	0.15304907
141	0xbb324f00	-0.0027207732
142	0xbdb94450	-0.09046233
143	0x3dae40aa	0.085084274
144	0x3e59f95d	0.21286531
145	0xbd772b58	-0.06034407
146	0xbced088a	-0.028934736
147	0x3e09f722	0.1347318
148	0xbe7c782c	-0.24655217
149	0xbdfeb98a	-0.124377325
150	0xbcdbbcfd	-0.026823515
151	0x3d83a9da	0.06428881
152	0x3e0b9bae	0.13633606
153	0x3c8dbe5a	0.01730268
154	0x3deb3fbc	0.11486766
155	0xbd638887	-0.055550124
156	0xbe36dd80	-0.17857933
157	0x3de7dee2	0.113218084
158	0xbe1ce1cb	-0.15320508
159	0xbd40ddf7	-0.047086682
160	0xbe7b3570	-0.24532104
161	0x3e434512	0.19069317
162	0xbe506ee3	-0.203548
163	0xbe3ee4eb	-0.18642013
164	0x3bda2c0e	0.0066580838
165	0x3d215128	0.039384037
166	0xbe745d55	-0.23863728
167	0xbe11f057	-0.14251839
168	0x3e416b5c	0.1888861
169	0x3d89c408	0.06726843
170	0x3e2a88c2	0.16653731
171	0xbe6403a0	-0.22267008
172	0xbd1762e0	-0.03695953
173	0xbe53337c	-0.20625108
174	0x3d888a60	0.06667018
175	0xbdf07620	-0.117412806
176	0x3e0ad10e	0.1355631
177	0xbbb35d00	-0.005473733
178	0x3e5e6dac	0.21721524
179	0x3de880ed	0.11352716
180	0x3e720558	0.23634851
181	0xbe44b2b2	-0.19208792
182	0x3d892a8a	0.06697567
183	0x3e52ca11	0.20584895
184	0x3c762bf5	0.015025129
185	0x3cff32a3	0.031152075
186	0x3e6d3c8d	0.2316763
187	0x3e50be62	0.20385125
188	0xbe115611	-0.14192988
189	0xbd82ee24	-0.06393078
190	0xb97fec6d	-0.0002440677
191	0x3e634f55	0.22198232
192	0xbe1e1c66	-0.1544052
193	0x3e6d0164	0.23145062
194	0xbe54c309	-0.20777525
195	0xbd0378e8	-0.032097727
196	0xbe49cc06	-0.19706735
197	0xbcc1151f	-0.023569642
198	0xbe775fa3	-0.24157576
199	0xbd0b6218	-0.034029096
200	0xbe40a4ee	-0.18812916
201	0x3c3a0865	0.0113545405
202	0xbe1daeaf	-0.15398668
203	0x3e570f18	0.21001852
204	0x3ce6beaf	0.028167097
205	0xbe73dac4	-0.23813921
206	0xbde75b44	-0.112967044
207	0x3da14be4	0.07875803
208	0xbd653af9	-0.055964444
209	0xbdfcce02	-0.1234398
210	0xbe0fb91f	-0.14035462
211	0xbd7ef940	-0.062249422
212	0xbe51e952	-0.20499161
213	0xbdd1c3ea	-0.10242446
214	0x3d67a725	0.056555886
215	0x3e1bc5f8	0.15212238
216	0x3e4f0db4	0.20220071
217	0xbe0a85fe	-0.13527676
218	0xbde6225d	-0.11237023
219	0xbe6f857e	-0.23390767
220	0x3dfb02f4	0.12256423
221	0x3d4e59b6	0.050378524
222	0x3e0295b6	0.12752423
223	0xbe77eb10	-0.24210763
224	0xbe4c904a	-0.19976917
225	0x3e299808	0.16561902
226	0x3e461437	0.19343649
227	0xbd72a200	-0.059236526
228	0x3d62d158	0.055375427
229	0x3e4d9e8a	0.20080009
230	0xbe1c979f	-0.15292214
231	0x3e648593	0.2231658
232	0x3d93ab71	0.07210434
233	0x3e6b1cc0	0.22960186
234	0x3cd0e0f0	0.025497884
235	0x3e12897e	0.14310262
236	0xbe2e96d6	-0.17049727
237	0xbcbd4269	-0.023102956
238	0x3e7a9a26	0.24472865
239	0xbdb5f4a0	-0.08884549
240	0x3e3af824	0.1825872
241	0x3d8f8424	0.07007626
242	0xbd88a05c	-0.06671211
243	0x3dd45d24	0.10369328
244	0x3e4f62fe	0.20252606
245	0x3e455bfc	0.1927337
246	0x3c7d82b9	0.015473061
247	0x3da9ce2f	0.082912795
248	0xbd2ece9c	-0.042677507
249	0x3d8c7b31	0.068594344
250	0xbe3f8322	-0.18702367
251	0xbe6b6850	-0.22989011
252	0xbd333250	-0.043749154
253	0x3e56f3a0	0.20991373
254	0x3e763113	0.24042158
255	0x3d87c3e6	0.066291615

net.3.weight f4 [128, 256]
0	0xbd455bd9	-0.048183296
1	0xbd3ce0de	-0.046112888
2	0xbc514960	-0.012773842
3	0x3c1e6fd0	0.009670213
4	0xbd283eea	-0.041075625
5	0xbd4c3a7e	-0.04986047
6	0x3ca407f0	0.020023316
7	0xbc9142f8	-0.017732129
8	0xbd2de165	-0.04245128
9	0x3d216705	0.039404888
10	0xbcb8233c	-0.022477739
11	0xbd2dc8c0	-0.04242778
12	0x3d2fba1d	0.0429021
13	0xbd04b0f3	-0.032395314
14	0xbcbe8fc3	-0.02326191
15	0xbd2a4df4	-0.04157825
16	0xbcc8b8f4	-0.024502255
17	0xbd492196	-0.049104296
18	0x3c41ab50	0.011820629
19	0xbd68918e	-0.056779437
20	0xbd2b59ba	-0.041833617
21	0xbc893b28	-0.01675184
22	0x3d45ba22	0.048273213
23	0xbccb0a38	-0.024785146
24	0xbd42cc64	-0.047558203
25	0xbd11b358	-0.035571426
26	0xbbd2c8b7	-0.0064326185
27	0xbd7499d4	-0.059717014
28	0x3d0dace9	0.034588728
29	0xbd5c84a7	-0.053837445
30	0xbd6a4afa	-0.05720041
31	0x3cacfe46	0.02111734
32	0xbd4dd7a2	-0.05025447
33	0xbbf2d6b0	-0.0074108467
34	0x3cd5cc85	0.0260985
35	0x3d1ea1a2	0.038728364
36	0x3d59f8ff	0.053215977
37	0xba1bd6f6	-0.00059448124
38	0x3d6a6027	0.057220604
39	0xbd1f28ac	-0.038857147
40	0x3d4118f0	0.047142923
41	0x3ccdd955	0.025128046
42	0x3cbb3ee0	0.02285713
43	0x3d5df64e	0.054189973
44	0xbd89e440	-0.06732988
45	0x3d3d292d	0.046181846
46	0x3d6951d9	0.05696282
47	0xbd1495f2	-0.03627581
48	0xbc36689e	-0.011133341
49	0x3d3811af	0.04493874
50	0x3c97e5a8	0.018542126
51	0x3d37f74d	0.04491358
52	0x3d7019cf	0.058618363
53	0x3d63f0ab	0.05564944
54	0x3d3c3fe3	0.045959365
55	0xbba69230	-0.005083345
56	0xbcfe0c75	-0.0310118
57	0x3c8f8bf0	0.017522782
58	0xbd4e1878	-0.050316304
59	0x3c1be5b1	0.009515212
60	0x3d35678e	0.04428821
61	0x3d6e2f10	0.05815035
62	0x3d0bffd0	0.03417951
63	0x3d726b8f	0.059184607
64	0xbc6511af	-0.013981267
65	0x3d497ab9	0.049189303
66	0x3c8fd51c	0.017557673
67	0x3b042b7d	0.0020167523
68	0xbcb1ab68	-0.021688178
69	0x3c84084c	0.016117238
70	0x3d22736e	0.039660864
71	0xbbb713e6	-0.005587089
72	0x3cd7b42c	0.02633103
73	0x3d59cca2	0.05317367
74	0xbd186860	-0.037208915
75	0x3c58a8c8	0.013223834
76	0xbcfef745	-0.031123767
77	0x3d0517cc	0.032493398
78	0x3d174682	0.036932476
79	0x3baa0de6	0.005189645
80	0xbd0f64df	-0.035008308
81	0x3d10fd8f	0.035398062
82	0xbd55fd12	-0.0522433
83	0xbc3e12cc	-0.011601161
84	0x3d3bef0b	0.045882266
85	0x3bcf2a43	0.0063221767
86	0xbd1cf8cd	-0.038323212
87	0xbd15b7e1	-0.036552314
88	0x3d02b88a	0.03191427
89	0x3d0ef864	0.034904853
90	0x3d1df4b8	0.03856346
91	0x3d5fac1c	0.054607496
92	0x3c8080a0	0.015686333
93	0x3d459f75	0.048247773
94	0xbce37077	-0.027763588
95	0x3c0eb8af	0.008711024
96	0xbcb9d6ec	-0.02268549
97	0xbc81aa98	-0.015828416
98	0xbd4c5e1e	-0.049894445
99	0xbd33d048	-0.043899804
100	0x3d63082a	0.055427708
101	0xbbbb7110	-0.005720265
102	0xbcc1b8c7	-0.023647679
103	0x3d070526	0.032963894
104	0xbd3c37b6	-0.045951568
105	0xbd00d056	-0.031448685
106	0x3c68c479	0.014206999
107	0x3d3e35b2	0.046437927
108	0xbd39a156	-0.045319878
109	0x3c1b7577	0.009488455
110	0x3d13ada8	0.036054283
111	0xbd2ff62c	-0.042959377
112	0x3d4b80ee	0.049683504
113	0xbd64acfe	-0.05582904
114	0x3d1e6181	0.038667206
115	0x3b3eb311	0.002909843
116	0x3d5d3a9a	0.054010965
117	0xbc1cf938	-0.009580903
118	0xbd748d24	-0.059704915
119	0xbcec6995	-0.02885894
120	0x3d0dc672	0.03461308
121	0xbd2efa4e	-0.042719178
122	0xbbc95522	-0.006144182
123	0xbd1a58d5	-0.037682373
124	0x3d73206b	0.059357088
125	0x3cf31290	0.029671937
126	0xbbc8d930	-0.0061294064
127	0x3d28a79b	0.041175466
128	0x3c214688	0.009843476
129	0xba2cd000	-0.0006592274
130	0xbd1ec086	-0.038757823
131	0xbc5a9f17	-0.013343594
132	0x3d1b077c	0.037848935
133	0x3b64dc1b	0.0034921232
134	0x3be6b02d	0.0070400448
135	0xbd3645d0	-0.044500172
136	0xbc17c190	-0.0092624575
137	0xb9c1be00	-0.0003695339
138	0x3951ec00	0.0002001971
139	0x3d3d94cb	0.04628448
140	0xbd8a09a9	-0.06740124
141	0xbd2058ee	-0.03914731
142	0xbd12f40c	-0.035877272
143	0xbccd0fa8	-0.02503188
144	0x3b15d8e0	0.0022864863
145	0x3cf1dba0	0.02952367
146	0xbd2a46cc	-0.041571423
147	0xbd10b510	-0.035328925
148	0xbd520c2c	-0.05128114
149	0xbd014d72	-0.031568
150	0xbd41ff78	-0.047362775
151	0x3c1031f8	0.008800976
152	0xbd3fcf5d	-0.046828616
153	0xbce5c714	-0.02804903
154	0x3d048c5e	0.032360427
155	0xbd77ab0f	-0.06046587
156	0xbc9761d8	-0.018479273
157	0xbd554221	-0.05206502
158	0xb801b800	-3.092736e-05
159	0xbbcaf5ed	-0.0061938674
160	0x3d429a2b	0.047510307
161	0xbd63dafb	-0.055628758
162	0x3c9d81b2	0.019226883
163	0xbd5666fb	-0.052344304
164	0xbd1a4d3e	-0.03767132
165	0x3d0efd20	0.034909368
166	0x3a994be0	0.0011695586
167	0x3cdceea8	0.026969269
168	0xbd149a8a	-0.036280192
169	0x3b19c980	0.002346605
170	0xbd4c88a4	-0.049935
171	0xba7b6a80	-0.000959076
172	0x3d45f198	0.048326105
173	0x3c9782c8	0.018494979
174	0x3c9edce4	0.019392438
175	0x3c4c6cb0	0.012477085
176	0x3ca63723	0.020289963
177	0x3c2679d0	0.010160878
178	0xbc594be5	-0.013262724
179	0x3d2a27c8	0.041541845
180	0xbd6a92e4	-0.057268992
181	0xbd708c2c	-0.05872743
182	0x3cdb6778	0.026782736
183	0xbbd7f559	-0.006590527
184	0xbc09ff4b	-0.008422683
185	0x3d65e8de	0.056130283
186	0x3c060614	0.00818016
187	0x3d4114b2	0.047138877
188	0x3d015dec	0.03158371
189	0xbd6d3bac	-0.057918236
190	0xbd42fe34	-0.04760571
191	0xbd601fa5	-0.05471768
192	0xbb1a6359	-0.002355775
193	0xbcb916fc	-0.022593968
194	0x3d4aaafd	0.049479473
195	0xbd4ad0dc	-0.04951559
196	0x3bb9a03f	0.005664855
197	0x3d71afca	0.059005536
198	0xbcfcf134	-0.030876733
199	0x3d4ec366	0.050479315
200	0x3c40d420	0.011769325
201	0x3ce66b1d	0.028127247
202	0x3d4ad86c	0.049522802
203	0xbd5f8eaa	-0.054579414
204	0x3c82f49e	0.015985783
205	0x3a062f14	0.00051187095
206	0x3d21981c	0.039451703
207	0x3c4b0378	0.012390964
208	0x3d48d05c	0.049026832
209	0x3d03b9ca	0.032159604
210	0xbd0babed	-0.034099508
211	0x3ca783b0	0.020448536
212	0xbcb42eac	-0.021994911
213	0xbd60e799	-0.05490837
214	0xbd3de22e	-0.04635828
215	0x3cf6bdf7	0.03011988
216	0xbcc964ec	-0.024584256
217	0xbcec8ca8	-0.028875664
218	0xbb28b918	-0.002574509
219	0x3bce0080	0.0062866807
220	0xbd7479f9	-0.059686635
221	0xbd61f46a	-0.055164732
222	0xbcdceea5	-0.026969263
223	0xbd1c05a3	-0.038091313
224	0x3808c000	3.260374e-05
225	0xbd53699d	-0.051614393
226	0xbd112850	-0.035438836
227	0x3c80ef14	0.015739001
228	0x3d75044c	0.05981855
229	0x3ceb2914	0.028706111
230	0xbd2bc960	-0.041940093
231	0xbc7acf9e	-0.015308289
232	0xbd414b18	-0.047190756
233	0x3d1b28c6	0.03788068
234	0xbd32d5f4	-0.043661073
235	0xbaddf200	-0.0016933084
236	0xbd1c2d76	-0.038129292
237	0x3c9e7949	0.019344943
238	0x3d236751	0.039893452
239	0x3d52d84c	0.051475808
240	0xbc97a540	-0.018511415
241	0x3d211f90	0.03933674
242	0x3c5ed248	0.01359994
243	0x3d4841da	0.048890926
244	0xbcad9564	-0.021189399
245	0x3d602378	0.054721326
246	0xbd08ff47	-0.033446576
247	0xbd27a5e6	-0.040929697
248	0xbd664a19	-0.05622301
249	0xbd35eab4	-0.044413283
250	0xbd79eb2c	-0.061015293
251	0xbc075a51	-0.008261279
252	0xbcb7ae8c	-0.022422098
253	0x3d5cc86f	0.053902086
254	0xbcdf616d	-0.027268136
255	0xbd106401	-0.03525162

net.3.bias f4 [128]
0	0x3c8ecf31	0.017432781
1	0x3ca7323b	0.020409694
2	0xbd8256f3	-0.063642405
3	0x3d5d8244	0.05407931
4	0xbcbeaaf2	-0.023274872
5	0xbd5cc9b9	-0.053903315
6	0xbd62302f	-0.055221733
7	0x3d62d7da	0.055381633
8	0xbbcbed8d	-0.0062233866
9	0x3d1df5f7	0.03856465
10	0xbd35442e	-0.044254474
11	0x3d3d25e1	0.046178702
12	0xbd48bbcb	-0.04900722
13	0xbbd80ee0	-0.00659357
14	0x3c911cf4	0.017714001
15	0x3d19e8d6	0.037575565
16	0x3d25aa03	0.04044534
17	0xbb9d76b4	-0.0048054103
18	0x3be492c9	0.006975506
19	0xbc03bfa8	-0.0080413
20	0x3d05bee3	0.032652747
21	0xbd3e0402	-0.04639054
22	0xbc941358	-0.01807563
23	0x3d3d56c4	0.046225324
24	0xbca90358	-0.020631477
25	0x3ca617b4	0.020274974
26	0x3d2305d7	0.03980049
27	0x3d80f9cd	0.06297646
28	0xbd5922b6	-0.05301162
29	0x3d064cee	0.03278821
30	0xbd669688	-0.0562959
31	0x3d089c02	0.033351906
32	0xbc1c7c6a	-0.009551147
33	0x3d5483e2	0.051883586
34	0xbd09b82b	-0.033622902
35	0xbd2c7909	-0.042107616
36	0x3d0ce70d	0.034400035
37	0xbbc24402	-0.0059285173
38	0xbd1464d0	-0.036228955
39	0x3d18d29d	0.03731023
40	0xbd4c4aea	-0.04987613
41	0x3c0b45f8	0.008500569
42	0xbc906dcc	-0.01763048
43	0x3d88c495	0.0667812
44	0xbb8e76b0	-0.0043476447
45	0xbd5ca58d	-0.05386882
46	0x3c514468	0.012772657
47	0xbd765bc7	-0.06014612
48	0xbc8c96a2	-0.017161671
49	0xbcab273d	-0.020892734
50	0xbd38293e	-0.044961207
51	0xbd3f338d	-0.046680022
52	0x3b883c47	0.0041575762
53	0x3bf042a3	0.0073321625
54	0xbd0429ee	-0.03226655
55	0x3c8da0f1	0.017288657
56	0xbb0328ab	-0.0020013254
57	0xbd22ff2d	-0.039794136
58	0xbd387c2c	-0.045040295
59	0xbd01c80e	-0.031684928
60	0xbd245e54	-0.04012902
61	0x3d65a0d8	0.056061596
62	0xbc03ce66	-0.008044815
63	0x3c8c04ab	0.01709207
64	0x3d46221c	0.048372373
65	0xbc69d59b	-0.014272119
66	0x3cf2d849	0.029644148
67	0xbb800da0	-0.003907874
68	0x3c7337f9	0.014844888
69	0xbd69f136	-0.057114802
70	0x3cc8998c	0.02448728
71	0xbd0f3626	-0.03496375
72	0x3c4421b8	0.01197093
73	0x3c4c6a9f	0.012476592
74	0x3c8b42c8	0.016999617
75	0xbcc7c85d	-0.024387533
76	0x3d824bf3	0.063621424
77	0xbcb8b0c8	-0.022545233
78	0x3cc8b9fa	0.024502743
79	0xbd49ba95	-0.049250204
80	0x3d50f2e9	0.051012907
81	0x3bf8d624	0.007593887
82	0xbcf83bd4	-0.030301966
83	0xbd84a499	-0.06476707
84	0xbc910f79	-0.017707573
85	0x3d05fd2c	0.032712147
86	0x3c8cd8f0	0.017193288
87	0x3af85a18	0.0018947748
88	0xbcdd3fda	-0.027007986
89	0xbcc7fd6c	-0.024412833
90	0x3c5f4f23	0.0136297075
91	0x3d10b34e	0.03532725
92	0xbcbf52f4	-0.023354985
93	0xbd49a111	-0.04922587
94	0x3cae9fbe	0.021316405
95	0xbcde52b2	-0.027139042
96	0x3d3e3ad7	0.046442833
97	0xbd3768cb	-0.044777673
98	0x3d103204	0.03520395
99	0xbcbc1346	-0.022958409
100	0xbd7cc8fc	-0.06171511
101	0x3b8028fa	0.003911135
102	0x3bf898c8	0.0075865723
103	0x3d61c2f2	0.055117555
104	0xbc806440	-0.015672803
105	0x3d224f96	0.03962668
106	0x3d45c61e	0.048284642
107	0xbbad498a	-0.0052883076
108	0x3d6142f0	0.054995477
109	0xbcdf5163	-0.027260488
110	0xbd78b6d0	-0.06072122
111	0xbd45ecc2	-0.048321493
112	0x3d0c7866	0.03429451
113	0x3d18da67	0.03731766
114	0xbd074ef2	-0.033034272
115	0x3d8764c8	0.066110194
116	0x3d53c304	0.051699653
117	0x3bd6e5e6	0.0065581677
118	0xbd844cca	-0.06459959
119	0x3d57dcd9	0.05270085
120	0xbd27c819	-0.040962312
121	0xbc68cdc1	-0.014209212
122	0xbc068b11	-0.008211867
123	0xbd2509ee	-0.040292673
124	0x3d7c9628	0.061666638
125	0x3cb3d922	0.021954123
126	0x3d2c8120	0.04211533
127	0xbd481ec2	-0.048857458

net.6.weight f4 [64, 128]
0	0xbcd4b9e4	-0.025967546
1	0xbdafa857	-0.0857703
2	0xbd233722	-0.0398475
3	0xbd456f65	-0.048201937
4	0x3da43870	0.08018577
5	0xbdab57e0	-0.0836637
6	0x3d8388c1	0.06422568
7	0xbd9bbc4b	-0.076042734
8	0xbd937cf4	-0.07201567
9	0x3d81cf3b	0.06338354
10	0x3d518821	0.051155213
11	0xbd59a0a3	-0.05313171
12	0xba0e249a	-0.0005422324
13	0x3c24d7bc	0.010061201
14	0xbd4ea1b5	-0.050447185
15	0xbd36364b	-0.04448537
16	0xbda8eab4	-0.08247891
17	0x3c416340	0.011803448
18	0xbc802667	-0.015643312
19	0x3d1060b7	0.035248484
20	0x3d947cb4	0.07250348
21	0xbd590cf7	-0.05299088
22	0x3d848796	0.064711735
23	0x3d309f32	0.04312057
24	0x3b384e95	0.002812301
25	0x3d9d1470	0.07669914
26	0xbd62c993	-0.055368017
27	0xbb7829ef	-0.0037866791
28	0xbdb2aeed	-0.08724771
29	0x3d62c503	0.055363666
30	0xbd2e7e1f	-0.042600747
31	0xbd679813	-0.056541514
32	0xbd65468d	-0.055975486
33	0xbc163ae0	-0.00916931
34	0x3d3370f9	0.04380891
35	0x3c63c01d	0.013900784
36	0xbd2032c7	-0.039110925
37	0xbd8c2b88	-0.068442404
38	0x3becc752	0.0072259093
39	0xba540091	-0.00080872426
40	0xbd1e8f19	-0.038710687
41	0x3b81fb08	0.003966693
42	0x3d324399	0.043521497
43	0x3d5b602b	0.05355851
44	0x3d82bcc7	0.06383663
45	0x3d554e56	0.05207666
46	0x3d94effe	0.072723374
47	0x3d26db7e	0.040736668
48	0xbd8cc563	-0.06873586
49	0xbd546829	-0.051857147
50	0x3bbb382d	0.005713484
51	0xba22b80c	-0.00062072347
52	0xbdb3edf2	-0.08785619
53	0xbdb2e56a	-0.087351635
54	0x3d8985b7	0.06714957
55	0xbda5cd05	-0.08095745
56	0x3da61cdc	0.08110973
57	0x3d99df40	0.07513285
58	0xbd16797f	-0.03673696
59	0x3d6f2f8f	0.058394965
60	0xbd5f8970	-0.05457443
61	0x3c73998d	0.014868152
62	0x3b508d53	0.0031822517
63	0x3ca358ca	0.019939799
64	0xbcbd35eb	-0.023097
65	0xbd65f543	-0.056142103
66	0x3d7180af	0.058960613
67	0xbd956e09	-0.07296378
68	0xbcca3ff9	-0.024688708
69	0x3d448ec4	0.047987714
70	0x3d3687c2	0.044563062
71	0xba001c52	-0.00048870326
72	0xbd2aac8f	-0.04166847
73	0xbd7cc0a0	-0.06170714
74	0x3c81c362	0.015840236
75	0xbd2ddd40	-0.04244733
76	0x3d51562d	0.051107574
77	0x3c01c616	0.0079207625
78	0xbabc2ba6	-0.001435627
79	0x3d7d66dc	0.061865672
80	0xbd7cba0c	-0.061700866
81	0x3daa3312	0.08310522
82	0xbcf04798	-0.029331014
83	0x3cfb6e1e	0.030692156
84	0x3db66d7d	0.08907602
85	0x3d55601c	0.05209361
86	0xbdb1105f	-0.08645701
87	0x3b2c67f8	0.0026307087
88	0xbd94a561	-0.07258106
89	0x3d90577a	0.07047935
90	0xbd87c451	-0.06629241
91	0xbd7feea5	-0.06248345
92	0xbd4b14f4	-0.04958053
93	0xbd949079	-0.072541185
94	0x3da5a12e	0.08087383
95	0xbd89d1cd	-0.067294694
96	0xbc475cc9	-0.012168118
97	0xbd872052	-0.065979615
98	0xbcdacdcc	-0.02670946
99	0xbd03cd3c	-0.03217815
100	0xbc4749d7	-0.012163601
101	0x3c562f6a	0.013072828
102	0xbcc111f9	-0.02356814
103	0xbd31fea6	-0.043455742
104	0xbc0549d8	-0.0081352815
105	0xbd8c568e	-0.068524465
106	0x3caf1663	0.02137298
107	0x3d14fa94	0.036371782
108	0xbd01aced	-0.031659056
109	0x3d8a36fd	0.067487694
110	0x3d85b45f	0.06528544
111	0x3c8348b2	0.016025875
112	0xbd93b3cd	-0.07212029
113	0x3dad7730	0.08469999
114	0xbd8e72ba	-0.06955476
115	0x3dac0fcc	0.084014505
116	0xbd3a80a8	-0.045532852
117	0x3d37576a	0.0447611
118	0x3cdf2b75	0.027242402
119	0x3d37be35	0.04485913
120	0xbcea61a3	-0.02861101
121	0xbd3270dc	-0.043564662
122	0x3d9ef72e	0.077619895
123	0x3d324ed9	0.043532226
124	0xbc76714e	-0.015041662
125	0x3c2166ae	0.009851141
126	0xbcd3783a	-0.025814164
127	0x3d8df74e	0.06931935
128	0xbda6ad58	-0.081385314
129	0x3cde520b	0.02713873
130	0xbcef4d5d	-0.029211694
131	0x3c6e3921	0.014539988
132	0xbd33c1d8	-0.043886036
133	0xbc19a8d9	-0.009378635
134	0xbd198627	-0.037481453
135	0x3d921242	0.07132389
136	0xbda1255e	-0.07868455
137	0x3ceffd77	0.029295666
138	0xbd018c23	-0.031627785
139	0xbdbe6614	-0.092968136
140	0x3d597d54	0.053098038
141	0x3ca1a564	0.019732185
142	0x3d9d01b4	0.076663405
143	0xbd250b11	-0.040293757
144	0xbd76c024	-0.060241833
145	0xbd435e1f	-0.047697183
146	0xbd31a6f4	-0.04337211
147	0xbd3bf8d3	-0.045891594
148	0x3ca3b5c7	0.01998414
149	0x3d867c50	0.065666795
150	0x3d989fc4	0.07452348
151	0xbc3aa5fc	-0.011392113
152	0x3d9a1236	0.07523005
153	0xbc27d50b	-0.0102436645
154	0xbd303cb3	-0.043026637
155	0xbd6848c5	-0.056710023
156	0xbd84fb4c	-0.064932436
157	0x3d8bae66	0.06820373
158	0x3d731806	0.059349082
159	0xbc88d5b9	-0.016703473
160	0xbd6691ba	-0.05629132
161	0xbccb9de6	-0.024855565
162	0x3da5d53f	0.08097314
163	0x3b0a3708	0.002108993
164	0xbdad536a	-0.084631756
165	0x3ceca584	0.028887518
166	0x3d0492bf	0.03236651
167	0x3d33e89e	0.043923013
168	0x3ba63243	0.0050719096
169	0xbd31756c	-0.043324873
170	0xbd0db30b	-0.034594577
171	0x3d529b17	0.051417436
172	0x3d595403	0.053058635
173	0x3d597e5f	0.053099032
174	0xbda980e9	-0.08276541
175	0x3d8a7de3	0.06762292
176	0xbce02edf	-0.0273661
177	0xbc2cffab	-0.010559003
178	0xbdacf724	-0.08445576
179	0xbcfeadc3	-0.031088715
180	0xbd431242	-0.047624834
181	0xbd900635	-0.07032434
182	0x3da6999d	0.08134768
183	0x3d82ada8	0.063807786
184	0xbbb9294b	-0.0056506745
185	0x3da8bc74	0.082390696
186	0xbd8237cc	-0.06358299
187	0xbceb08c1	-0.028690698
188	0x3d9c33fe	0.07627104
189	0x3d0e3097	0.034714308
190	0x3d9ddb0b	0.07707795
191	0x3d3a4177	0.04547259
192	0xbd032160	-0.03201425
193	0x3d1e654a	0.038670816
194	0x3d8a39d1	0.06749309
195	0x3d37c5f2	0.04486651
196	0xbda772a3	-0.08176162
197	0x3d054033	0.03253193
198	0x3d9b27eb	0.07575973
199	0xbc81b64f	-0.015834002
200	0xbc4c0950	-0.012453392
201	0xbc3e3584	-0.011609439
202	0xbcc5a605	-0.024127016
203	0xbd0b765a	-0.034048416
204	0x3da0b49a	0.07846947
205	0x3d4c9a48	0.04995182
206	0xbd38527d	-0.045000542
207	0xbd364d62	-0.04450739
208	0xbcf3dd6e	-0.029768672
209	0x3d6e4750	0.058173478
210	0xbd856894	-0.06514087
211	0x3cac1d2a	0.02101
212	0x3cc0fc63	0.023557847
213	0xbc0b25be	-0.008492885
214	0x3d83e43a	0.06440015
215	0x3d58fbd1	0.052974526
216	0x3ce4e068	0.027939036
217	0xbb8ad98d	-0.00423736
218	0xbd5e85b1	-0.054326717
219	0x3da2d11e	0.07950042
220	0x3c756f26	0.014980113
221	0x3c9f3113	0.01943258
222	0xbd08828f	-0.033327635
223	0xbd945713	-0.072431706
224	0x3cde24b1	0.027117105
225	0x3d56b2b4	0.05241652
226	0xbd2b43b8	-0.04181263
227	0x3d7e3783	0.06206466
228	0xbdab6eb0	-0.08370721
229	0x3ca9f548	0.020746842
230	0x3cf2ac2e	0.029623117
231	0xbc9c80c2	-0.019104365
232	0x3d2d9dcb	0.04238681
233	0x3dad24df	0.08454298
234	0x3d935949	0.07194764
235	0x3d9a316a	0.07528956
236	0x3c36edb2	0.011165069
237	0x3c813313	0.015771424
238	0x3d4bf618	0.04979524
239	0xbb6c6cfb	-0.00360757
240	0x3b878c0e	0.004136569
241	0x3d1a7406	0.037708305
242	0x3d02d1c5	0.031938333
243	0xbb2d5d77	-0.0026453414
244	0xbd1a16a7	-0.03761926
245	0xbb15d2a6	-0.0022861152
246	0x3d1f2aa1	0.038859013
247	0x3d605d0c	0.054776236
248	0x3bf4cd08	0.0074707307
249	0x3b88ee79	0.004178819
250	0xbca36829	-0.019947128
251	0x3d05277c	0.03250836
252	0x3d76e57d	0.06027745
253	0x3da469cc	0.08027992
254	0x3d8332f1	0.06406201
255	0xbb314bf2	-0.0027053324

net.6.bias f4 [64]
0	0x3da17de9	0.078853436
1	0xbca20a03	-0.019780165
2	0xbd8d0116	-0.06884973
3	0x3cbc1271	0.022958012
4	0xbb8c8404	-0.0042881984
5	0x3d960e78	0.073269784
6	0x3c3c1750	0.0114801675
7	0xbd3862a3	-0.045015942
8	0x3d888746	0.06666426
9	0xbd341d05	-0.043972988
10	0x3d622250	0.055208504
11	0xbdae5c97	-0.08513754
12	0x3d22707c	0.039658055
13	0x3cc5709f	0.024101553
14	0xbdb0e206	-0.086368605
15	0x3d60d223	0.054887902
16	0x3d8e652b	0.0695289
17	0xbcc6cca7	-0.024267508
18	0x3bfef3b7	0.007780518
19	0xbcb5e39a	-0.022203255
20	0x3d1c001a	0.038086034
21	0x3da5853e	0.080820546
22	0xbd8aae73	-0.06771555
23	0x3b202375	0.0024435197
24	0x3c84dda1	0.016218962
25	0xbd52c3cf	-0.05145627
26	0xbbce1736	-0.006289388
27	0x3d84f621	0.06492258
28	0xbd540e4b	-0.051771443
29	0x3cfe4ee5	0.03104348
30	0xbd231788	-0.039817363
31	0xbc88972b	-0.016673645
32	0xbd69ab39	-0.057048056
33	0x3c574d31	0.013140962
34	0x3d2030f2	0.039109178
35	0x3d5dea6d	0.054178644
36	0xbd829b9b	-0.06377336
37	0xbd6bd398	-0.05757484
38	0x3da1a853	0.078934334
39	0x3ba1119e	0.00491543
40	0x3cdd3a2b	0.027005276
41	0x3d8fbaec	0.070180744
42	0x3cc9ad26	0.024618696
43	0xbdb46349	-0.08808
44	0x3d4b0884	0.049568668
45	0x3d897371	0.06711472
46	0xbdb9d0ab	-0.090730034
47	0xbca2d8a7	-0.019878699
48	0x3d6462b9	0.05575821
49	0x3b6e0126	0.0036316602
50	0x3b91d443	0.0044503524
51	0x3d082b5b	0.033244472
52	0x3dba1f33	0.09087982
53	0x3d3ae260	0.045626044
54	0x3d856c8e	0.06514846
55	0xbbd7c97b	-0.0065852976
56	0xbd352ad7	-0.04423031
57	0xbd53a75e	-0.051673286
58	0xbda96851	-0.0827185
59	0x3da1ad3c	0.0789437
60	0x3d43888a	0.047737636
61	0x3a98920d	0.0011640206
62	0xbd0aa3ad	-0.0338475
63	0xbc47e9dd	-0.012201753

net.8.weight f4 [3, 64]
0	0x3d96ca2e	0.073627815
1	0x3dff5bba	0.12468667
2	0x3d2e8f4e	0.042617135
3	0x3b4ab4eb	0.003093059
4	0x3db089f9	0.08620066
5	0xbac2ef2c	-0.0014872304
6	0xbdbd5459	-0.09244604
7	0x3d94f1ba	0.07272668
8	0x3d9d9ee1	0.07696319
9	0xbd569734	-0.052390292
10	0x3cb50f70	0.022102088
11	0x3ce40368	0.027833655
12	0x3de46866	0.11152725
13	0x3df66864	0.1203163
14	0x3d9e1a64	0.07719877
15	0x3de19c6a	0.11016162
16	0x3dc32d08	0.095300734
17	0xbca42988	-0.020039335
18	0x3de95c69	0.11394579
19	0x3df1902b	0.11795076
20	0xbc18625f	-0.009300797
21	0xbc5125c1	-0.012765349
22	0x3dbfefe2	0.09371926
23	0xbd625921	-0.05526078
24	0xbbdf2298	-0.006809544
25	0x3c25b150	0.010113075
26	0xbc81932c	-0.015817247
27	0xbde7a6fa	-0.11311145
28	0x3ddb968d	0.10722075
29	0xbb22ee69	-0.0024861342
30	0xbd94fda0	-0.07274938
31	0x3d37dd78	0.044888943
32	0x3cc15410	0.023599654
33	0x3d2a6d98	0.041608423
34	0x3dafa4ed	0.08576379
35	0x3b67bd1a	0.0035360516
36	0xbd5cbb4e	-0.053889565
37	0xbded0fb8	-0.11575264
38	0xbdcb3b36	-0.09923403
39	0xbdbd4b5e	-0.09242891
40	0x3d654200	0.055971146
41	0x3ccbda1d	0.024884278
42	0xbda98e74	-0.08279124
43	0xbd0bd4f2	-0.034138627
44	0xbc79b1db	-0.015240158
45	0x3da667e5	0.08125285
46	0x3de926c7	0.11384349
47	0x3db693b2	0.089148894
48	0xbda165d8	-0.07880753
49	0xbd644366	-0.05572834
50	0xbdad1ab5	-0.084523596
51	0xbd0a1b12	-0.033717223
52	0xbd06078b	-0.032722037
53	0x3c0d6120	0.008629113
54	0xbd983059	-0.074310966
55	0xbcf90cc0	-0.030401587
56	0xbdc04008	-0.09387213
57	0x3d4dd828	0.05025497
58	0x3dd7a826	0.10530119
59	0x3de40b73	0.11134996
60	0x3cedf98a	0.029049654
61	0x3b3d5f90	0.002889607
62	0x3c5b7f70	0.013397083
63	0xbd3e420e	-0.046449713
64	0xbdf04d21	-0.11733461
65	0xbd98f2bd	-0.07468174
66	0xbb815620	-0.0039470345
67	0xbd9673ba	-0.07346292
68	0x3ddcd675	0.10783092
69	0xbc952208	-0.018204704
70	0xbd90d859	-0.07072515
71	0x3c9bc2d0	0.019013792
72	0x3d75304e	0.05986052
73	0x3d96829c	0.073491305
74	0xbdc4536c	-0.09586224
75	0x3bf8b760	0.0075902194
76	0xbddea71e	-0.10871719
77	0xbd829b32	-0.063772574
78	0xbde10166	-0.10986595
79	0x3df92748	0.121656954
80	0xbd39a56a	-0.045323767
81	0xbd14acf5	-0.036297757
82	0xbd925e09	-0.07146842
83	0x390c6bb4	0.00013391563
84	0x3d02f508	0.03197196
85	0xbd6ed91c	-0.05831252
86	0x3cd6b229	0.026208
87	0xbb8b0ada	-0.004243237
88	0x3da6758b	0.08127888
89	0xbde240db	-0.110475264
90	0x3dac98c5	0.08427576
91	0xbccca672	-0.024981711
92	0x3db99e2a	0.090633705
93	0x3d1ca6b2	0.03824491
94	0xbce87291	-0.028374942
95	0x3d0ab63c	0.0338652
96	0xbdfd81bc	-0.123782605
97	0x3d40ac22	0.04703916
98	0xbbf0befe	-0.007346987
99	0x3d4c62d4	0.049898937
100	0xbdef170e	-0.11674319
101	0xbd92d6cb	-0.07169875
102	0xbd26147e	-0.040546887
103	0xbcb56b60	-0.022145927
104	0x3d85b3b8	0.06528419
105	0xbdb415bd	-0.08793209
106	0xbd3412d6	-0.043963276
107	0xbdaecefa	-0.085355714
108	0x3db61bab	0.08891996
109	0xbcb009e1	-0.021489086
110	0xbd2e56cd	-0.04256325
111	0xbddbc670	-0.10731208
112	0xbdae8e97	-0.085232906
113	0x3d4a9b00	0.049464226
114	0x3b3350bc	0.0027361354
115	0xbb581da1	-0.0032976645
116	0x3dd7c317	0.10535257
117	0x3c06c1b3	0.008224892
118	0xbd96a22c	-0.073551506
119	0x3abd9300	0.0014463365
120	0xbcd183aa	-0.025575478
121	0xbdf359d7	-0.1188237
122	0xbdc8bbe9	-0.09801466
123	0x3d62225a	0.05520854
124	0x3ac15c0f	0.0014752167
125	0x3ba90073	0.0051575243
126	0xbdd8c11c	-0.10583708
127	0xbd8cf3f9	-0.068824716
128	0x3d8d7391	0.06906808
129	0xbd11a6e0	-0.035559535
130	0x3d68b5d8	0.056814045
131	0xbcf72358	-0.03016822
132	0x3ddfac6c	0.10921559
133	0xbd3fc4d8	-0.046818584
134	0x3d95bf87	0.073119216
135	0x3d5e4a68	0.054270178
136	0xbd941724	-0.07230976
137	0x3b7216c0	0.003693983
138	0xbd1f1c44	-0.038845316
139	0xbd879d66	-0.06621818
140	0xbdd720d3	-0.105043076
141	0x3c93c613	0.018038785
142	0x3d62fe6a	0.05541841
143	0x3dd27dda	0.102779105
144	0x3dc98be0	0.09841132
145	0xbd482675	-0.0488648
146	0xbdd9e54e	-0.106394395
147	0xbd031c45	-0.03200938
148	0xbccefe28	-0.025267676
149	0xbdc1285a	-0.094315246
150	0xbdb96235	-0.09051935
151	0x3c9b79c0	0.018978953
152	0x3cd26e4c	0.02568736
153	0x3cee60fa	0.029098976
154	0xbd2180fc	-0.03942965
155	0x3d0a1ebf	0.033720728
156	0xbda5a138	-0.08087391
157	0xbdfeb472	-0.12436761
158	0xbcf3c948	-0.029759064
159	0x3dce0470	0.1005944
160	0xbd723d84	-0.059140697
161	0xbd0fd3f8	-0.03511426
162	0xbd05dc82	-0.032680996
163	0x3de16d79	0.110072084
164	0xbda2e14b	-0.079531275
165	0x3c31ea20	0.010859042
166	0x3df26362	0.11835362
167	0xbd8f5fb0	-0.07000673
168	0xbdf83c10	-0.12120831
169	0xbcdc10f9	-0.026863562
170	0x3ca330c9	0.019920724
171	0x3b562bc0	0.0032679886
172	0xbd142c2c	-0.036174938
173	0x3d55cd31	0.05219764
174	0x3d184173	0.037171792
175	0x3dab4d66	0.08364372
176	0x3d514fbc	0.05110143
177	0x3dcdf5ea	0.1005667
178	0x3ce1aa62	0.027547065
179	0x3c062ec0	0.008189857
180	0x3dc134d2	0.09433903
181	0x3deafe83	0.114743255
182	0x3dd42bb8	0.10359901
183	0xbcaccbd8	-0.021093294
184	0xbdc9cd2c	-0.098535866
185	0x3d89c4ca	0.06726988
186	0x3dc9ef93	0.09860148
187	0x3db35591	0.08756555
188	0x3de74883	0.112931274
189	0x3de63e70	0.11242378
190	0xbda1ee0e	-0.079067335
191	0x3d451c10	0.048122466

net.8.bias f4 [3]
0	0xbd8d5351	-0.06900657
1	0xbdeb1544	-0.114786655
2	0x3df78b22	0.12087084
